classification/data/Segmented_Models/model_44/model_46.npz (npz, 709914 bytes, 3 tensors)

vertices (column-major) f8 [6106, 3]
0	0x4052d48561d4306e	75.320641
1	0x40531ea99fa11a97	76.479103
2	0x4052d48561d4306e	75.320641
3	0xc05101c60029f16b	-68.02771
4	0xc05142bd4067cf1c	-69.042801
5	0xc0511e2c01e68a0d	-68.471436
6	0xc050dceefe4ffc98	-67.452087
7	0xc050ecf37fbefd00	-67.702362
8	0xc050ab8d9f9053a0	-66.680519
9	0xc050af8adeebb342	-66.742851
10	0xc0506e1e3eaf6838	-65.720596
11	0xc0506686df82b1f7	-65.601982
12	0xc050253c3e74afd5	-64.581802
13	0xc05012988094e5d6	-64.290558
14	0xc04fa33eff195033	-63.27536
15	0xc04f6916440f2389	-62.820992
16	0xc04ee835dedf1e08	-61.814144
17	0xc04e9a8522ea0fd4	-61.207188
18	0xc04e1b357e670e2c	-60.21257
19	0xc04dbb7204295a6c	-59.464417
20	0xc04d3e438088509c	-58.486435
21	0xc04ccdf9830e3cda	-57.609177
22	0xc04c538d82342246	-56.652756
23	0xc04bd45aff2a172b	-55.659027
24	0xc04b5d63fdd65a14	-54.729614
25	0xc04ad0f301eabbcb	-53.632416
26	0xc04a5e34a01abd1b	-52.735981
27	0xc049c6365cb35f3d	-51.548534
28	0xc04958833c60029f	-50.691505
29	0xc048b6ab1d4f9c20	-49.427097
30	0xc0484ee4c0df58c1	-48.616356
31	0xc047a4e3608d0892	-47.288189
32	0xc04743f78359bc34	-46.530991
33	0xc04693763e4abe6a	-45.152046
34	0xc0463a5d7cb2d906	-44.455978
35	0xc04584fa3fcc9eaa	-43.038887
36	0xc04534b51bd61f5c	-42.411777
37	0xc0447bfec13b9f12	-40.968712
38	0xc0443593037d6302	-40.418549
39	0xc0437b05e1c15098	-38.961117
40	0xc0433f7b2031ceaf	-38.495945
41	0xc042847dfe32a066	-37.035095
42	0xc04254dac258d584	-36.662926
43	0xc0419abc83a96d4c	-35.208878
44	0xc041780242d05f29	-34.937569
45	0xc040bff7dfa00e28	-33.499752
46	0xc040ab1f1cfbb949	-33.336887
47	0xc03fec83fd502257	-31.923889
48	0xc03fe06cdaf4adbc	-31.876661
49	0xc03e7f075b3e1438	-30.496206
50	0xc03e9240852b4d8c	-30.571297
51	0xc03d3aef1bac2df1	-29.230211
52	0xc03d6f0468448cf8	-29.433661
53	0xc03c234cc2507208	-28.13789
54	0xc03c799806f26289	-28.474976
55	0xc03b3ac57e23f24e	-27.229576
56	0xc03bb466c2acb85a	-27.704693
57	0xc03a838d1d8a5482	-26.513872
58	0xc03b21627bf61aa4	-27.130409
59	0xc03ad5a3a08398a6	-26.834528
60	0xc039ff5f1bef49cf	-25.997545
61	0xc03a838d60a63305	-26.513876
62	0xc03b21629d8409e5	-27.130411
63	0xc03ad5a3e39f7729	-26.834532
64	0xc03bb466e43aa79c	-27.704695
65	0xc039ff5f5f0b2852	-25.997549
66	0xc03b3ac5c13fd0d0	-27.22958
67	0xc03c799817b95a29	-28.474977
68	0xc03c234d056c508b	-28.137894
69	0xc03d6f04790b8499	-29.433662
70	0xc03d3aef5ec80c74	-29.230215
71	0xc03e9240a6b93ccd	-30.571299
72	0xc03e7f079e59f2bb	-30.49621
73	0xc03fe06cfc829cfe	-31.876663
74	0xc03fec84406c00da	-31.923893
75	0xc040ab1f1cfbb949	-33.336887
76	0xc040bff8012dfd69	-33.499756
77	0xc04178025bfad29a	-34.937572
78	0xc0419abcbe61cfff	-35.208885
79	0xc04254dae3e6c4c6	-36.66293
80	0xc042847e1fc08fa8	-37.035099
81	0xc0433f7b41bfbdf1	-38.495949
82	0xc0437b06034f3fd9	-38.961121
83	0xc04435931ca7d673	-40.418552
84	0xc0447bfee2c98e54	-40.968716
85	0xc04534b53d640e9d	-42.411781
86	0xc04584fa615a8deb	-43.038891
87	0xc0463a5d7cb2d906	-44.455978
88	0xc04693765fd8adac	-45.15205
89	0xc04743f79c842fa5	-46.530994
90	0xc047a4e3821af7d3	-47.288193
91	0xc0484ee4c0df58c1	-48.616356
92	0xc048b6ab3edd8b61	-49.427101
93	0xc04958835dedf1e1	-50.691509
94	0xc049c6367e414e7f	-51.548538
95	0xc04a5e34a01abd1b	-52.735981
96	0xc04ad0f32378ab0d	-53.63242
97	0xc04b5d641f644956	-54.729618
98	0xc04bd45aff2a172b	-55.659027
99	0xc04c538da3c21188	-56.65276
100	0xc04ccdf99c38b04b	-57.60918
101	0xc04d3e43a2163fdd	-58.486439
102	0xc04dbb721d53cddd	-59.46442
103	0xc04e1b359ff4fd6d	-60.212574
104	0xc04e9a853c148345	-61.207191
105	0xc04ee835dedf1e08	-61.814144
106	0xc04f69167ec7863c	-62.820999
107	0xc04fa33eff195033	-63.27536
108	0xc05012989df1172f	-64.290565
109	0xc050253c60029f17	-64.58181
110	0xc05066870110a138	-65.60199
111	0xc0506e1e603d5779	-65.720604
112	0xc050af8adeebb342	-66.742851
113	0xc050ab8d9f9053a0	-66.680519
114	0xc050ecf37fbefd00	-67.702362
115	0xc050dceefe4ffc98	-67.452087
116	0xc0511e2c01e68a0d	-68.471436
117	0xc05101c60029f16b	-68.02771
118	0xc05142bd4067cf1c	-69.042801
119	0x405175d8a116659d	69.841347
120	0x4051b4dccea28fe2	70.825977
121	0x405140a1016ce78a	69.009827
122	0x405234676ea4228a	72.818813
123	0x4051d8fb65668c26	71.390344
124	0x4051e9e7ddca4b12	71.654777
125	0x4031548c60cbf2b2	17.330267
126	0x40439632a0663c75	39.17342
127	0x405350ff583a53b9	77.265585
128	0x4053a92c01e68a0d	78.643311
129	0x4053a306e5cd4ed3	78.547296
130	0xc0396596638433d7	-25.396826
131	0xc0368e2bbecaab8a	-22.555355
132	0xc038aa65bea0ba1f	-24.665615
133	0xc03efa619da9c993	-30.978052
134	0xc03f6b36bd2b6f1a	-31.418804
135	0xc04082d983947497	-33.022263
136	0xc040603800218def	-32.751709
137	0xc0416b53f7ced917	-34.8385
138	0xc04253b480a5accd	-36.653946
139	0xc04268eae9ee45c3	-36.819669
140	0xc0435d127f5e84f1	-38.727127
141	0xc043600000000000	-38.75
142	0xc04419d6adf71eb0	-40.201864
143	0xc04475b6fe2e6ea8	-40.919647
144	0xc044f583cf2cf95d	-41.918085
145	0xc0459288df37329c	-43.144802
146	0xc04829142b302f73	-48.320928
147	0xc048a255000c953a	-49.268219
148	0xc04b7f9157abb880	-54.996623
149	0xc04a6862bae03b3f	-52.815513
150	0xc04abfa0407cc7d2	-53.497078
151	0xc04eae11f4f50a03	-61.359923
152	0xc04e4d78c436fc16	-60.605248
153	0xc04daf4e22a2c237	-59.369572
154	0xc0512f0c1fc8f323	-68.735115
155	0xc050c54e8b7e4de4	-67.082919
156	0xc0510b6638433d6c	-68.178114
157	0xc0517728fe260b2d	-69.861877
158	0xc0513087160956c1	-68.758245
159	0xc0521c46fdeb52ca	-72.441833
160	0xc052064b40703298	-72.098343
161	0xc051adf9335d249e	-70.718335
162	0xc05225008205ff1e	-72.578156
163	0xc051be18c9fb6135	-70.970263
164	0xc051c1553ac4f7ec	-71.020827
165	0xc0522064e054690e	-72.506157
166	0xc051b96fef7c243e	-70.897457
167	0xc0520e7dfe32a066	-72.22644
168	0xc051aff2e05ccc8a	-70.749199
169	0x4053e6efe4ffc979	79.608392
170	0x40541d719f7f8ca8	80.46006
171	0x4054297221858bc6	80.647591
172	0xc0515167be553ac5	-69.271957
173	0xc05112605ee568a5	-68.287132
174	0xc0517b5186db50f4	-69.926851
175	0xc039f1017dae8188	-25.941429
176	0xc03a3b37542a23c0	-26.231313
177	0xc039f1016ce789e7	-25.941428
178	0xc053dc840181e03f	-79.445557
179	0xc053fce75360d024	-79.951619
180	0xc053babe1a826245	-78.917853
181	0xc053813bddfc9ff9	-78.019279
182	0xc053414441787054	-77.019791
183	0xc053065300581494	-76.098816
184	0xc052a3715c63ae25	-74.553794
185	0xc052b37820a30db7	-74.804207
186	0xc0528aa2df9378ee	-74.166191
187	0xc052cc8e29f9ce8e	-75.196177
188	0xc0530ec03ff69015	-76.230484
189	0xc0535248cf7caa76	-77.285694
190	0xc054062b40f66a55	-80.09639
191	0xc053f631d712a0ec	-79.846792
192	0xc053dc841ede1199	-79.445564
193	0xc05406b020c49ba6	-80.1045
194	0xc053c5d73c925786	-79.091262
195	0xc053813bff8a8f3b	-78.019287
196	0xc0531ff294dd7236	-76.499181
197	0xc053065321e603d5	-76.098824
198	0xc052b3cac083126f	-74.80925
199	0xc052927221858bc6	-74.288216
200	0xc0528a3821af7d31	-74.159676
201	0xc052b3783dff3f10	-74.804214
202	0xc052cc122749f0e5	-75.188608
203	0xc0530ec061847f56	-76.230492
204	0xc0534ee83e425aee	-77.232925
205	0xc05389a921ccd962	-78.150948
206	0xc053d955ffe6d58d	-79.395874
207	0xc053f600ffda4053	-79.843811
208	0xc053f0d75e2046c7	-79.763145
209	0xc053ff836eb4e981	-79.992397
210	0xc053c9b3e9a6f827	-79.151606
211	0xc053a252007dd441	-78.536255
212	0xc053586be37de93a	-77.381585
213	0xc0528ae8c0485a0c	-74.170456
214	0xc052a7ea0ba1f4b2	-74.62366
215	0xc0528a6809d49518	-74.1626
216	0xc0529f249e44fa05	-74.48661
217	0xc052c3de2ef4e011	-75.060436
218	0xc052edaa00192a73	-75.713501
219	0xc0534a3bddfc9ff9	-77.159904
220	0xc05402667f90d9d7	-80.037506
221	0xc053f80dd82fd75e	-79.875845
222	0xc053d456c0d6f545	-79.317795
223	0xc05374b7414a4d2b	-77.823685
224	0xc052bba5a038194c	-74.931984
225	0xc0530139c0ebedfa	-76.01915
226	0xc0531b451fc4c166	-76.426094
227	0xc05333642396073e	-76.802987
228	0xc0536fd64d7f0ed4	-77.747455
229	0xc053b95de15ca6ca	-78.896355
230	0xc053f4d6d3b6cbda	-79.825612
231	0xc0535b51c5c5718f	-77.426866
232	0xc05303b9bed30f06	-76.058212
233	0xc052cf83e425aee6	-75.242425
234	0xc052ad7160956c0d	-74.710045
235	0xc0525ef5275ee99a	-73.483713
236	0xc05243ac9f2fdb90	-73.057411
237	0xc05222b9fdbd2fa1	-72.542602
238	0xc0522194812be48a	-72.524689
239	0xc0522194812be48a	-72.524689
240	0xc053e889c1b54196	-79.633408
241	0xc0546fcc814d727a	-81.746857
242	0xc0544d5b5fa22707	-81.208702
243	0xc0545e93ff25e56d	-81.477783
244	0xc053ee9d7fd82774	-79.728363
245	0xc053602120e1f7d7	-77.502022
246	0xc05288b91f70de8f	-74.136299
247	0xc0522afba01eeed9	-72.671608
248	0xc05303b9bed30f06	-76.058212
249	0xc0535fcbff47735c	-77.496826
250	0xc05389a9003eea21	-78.15094
251	0xc0525c6eac860568	-73.444255
252	0xc0520e7e1fc08fa8	-72.226448
253	0xc0521e6b1e5c0b9a	-72.475288
254	0xc052fb85271bcdbc	-75.930002
255	0xc053082f1ed17c5f	-76.127876

vertex_normals (column-major) f8 [6106, 3]
0	0xbfe6cf1800a7c5ac	-0.71278
1	0xbff41a437824d4cc	-1.256412
2	0xbff41a415f45e0b5	-1.25641
3	0x40150b9b23dd54da	5.261334
4	0x4014ba95421c0443	5.18221
5	0x40142d77b7c7820a	5.044402
6	0x4014731a4bdba0a5	5.112405
7	0x4013722ee41919ac	4.861507
8	0x4013a704bc27631b	4.913104
9	0x40128693c03bc4d2	4.631423
10	0x4012a95ee136e71d	4.665401
11	0x40116dcc20d5629e	4.357224
12	0x40117cb35f3d7d39	4.371778
13	0x40102ab10ba62670	4.041691
14	0x401023f4a98aa865	4.035113
15	0x400d809edbf8b9bb	3.687803
16	0x400d45154866a11f	3.658732
17	0x400a64302b40f66a	3.29892
18	0x4009f892684cf074	3.246373
19	0x400707a20578e5c5	2.878727
20	0x40066aafbc1acde2	2.802093
21	0x40037318fc504817	2.4312
22	0x4002a461f9f01b86	2.330265
23	0x3fff5e80bed740c4	1.960572
24	0x3ffd5e6149c6f36f	1.835542
25	0x3ff78a808c8259e2	1.471314
26	0x3ff52a2d2fe3f35a	1.322797
27	0x3feefa56de33269e	0.968059
28	0x3fe9819d2391d580	0.797072
29	0x3fdd27913e81450f	0.45554
30	0x3fd0dde37585be1b	0.263543
31	0xbfaf9f666234a87e	-0.061763
32	0xbfd1716d2aa5c5f8	-0.272548
33	0xbfe281bc98a222d5	-0.578337
34	0xbfe9ca148ba83f4f	-0.805918
35	0xbff16ce89656eefa	-1.089089
36	0xbff54d1e96c3fc44	-1.331328
37	0xbff96f5558212945	-1.589681
38	0xbffd7f69014b599b	-1.843606
39	0xc0009a3b9ae0c176	-2.075309
40	0xc002b3a71151611c	-2.337721
41	0xc004544fe36d2242	-2.541168
42	0xc00678726d04e619	-2.808812
43	0xc007dcea6c1a048e	-2.982869
44	0xc00a049a133c1ce7	-3.252247
45	0xc00b2bbf50e34763	-3.396361
46	0xc00d4f2c7325918a	-3.663659
47	0xc00e38bac710cb29	-3.7777
48	0xc01027f38c5436b9	-4.039015
49	0xc0107d7cb2d905c0	-4.122546
50	0xc0117f9830e3cd9a	-4.374604
51	0xc011b6644d877250	-4.428117
52	0xc012ab256ffc115e	-4.667135
53	0xc012c87229e90796	-4.695748
54	0xc013a7a743a647fe	-4.913724
55	0xc013ab10ba6266fd	-4.917056
56	0xc014744f1a1986ba	-5.113583
57	0xc014562b27cbf6e4	-5.084149
58	0xc001c51761459536	-2.221236
59	0xc0006177ea1c68ec	-2.047592
60	0xc003c5d6bebe1651	-2.471601
61	0xc0145b220791c4b9	-5.088997
62	0xc001c51a005c4652	-2.221241
63	0xc000617c1bda511a	-2.0476
64	0xc014745069a4df48	-5.113588
65	0xc003aa305532617c	-2.4581
66	0xc013a9bb6aa4b988	-4.915754
67	0xc013a7a89331a08c	-4.913729
68	0xc012c90c4dec1c1d	-4.696336
69	0xc012ab26bf8769ec	-4.66714
70	0xc011baa1511dffc5	-4.432256
71	0xc0117f98fa376923	-4.374607
72	0xc01081aef6f8f041	-4.126644
73	0xc01027f4dbdf8f47	-4.03902
74	0xc00e40c308feac43	-3.781622
75	0xc00d4f2f9873ffac	-3.663665
76	0xc00b34a6eb91b3f2	-3.400709
77	0xc00a049ba5e353f8	-3.25225
78	0xc007e681a9b8cb8e	-2.987552
79	0xc00678759253543b	-2.808818
80	0xc0045e58e64b2314	-2.546068
81	0xc002b3a92a305532	-2.337725
82	0xc000a4c1ebc83a97	-2.080448
83	0xbffd7f6d330941c8	-1.84361
84	0xbff9859c8c9320da	-1.59512
85	0xbff54d23d4f15e7d	-1.331333
86	0xbff183d46b26bf87	-1.094685
87	0xbfe9ca1cef240faa	-0.805922
88	0xbfe2af3a14cec41e	-0.58389
89	0xbfd1717df19d66ae	-0.272552
90	0xbfb14dd72367e415	-0.067594
91	0x3fd0ddd6e04c0592	0.26354
92	0x3fdcc17a89331a09	0.449309
93	0x3fe98194c0160525	0.797068
94	0x3feec7ef177a7009	0.961906
95	0x3ff52a28fe260b2d	1.322793
96	0x3ff7720b8066c2ad	1.465343
97	0x3ffd5e5f30e7ff58	1.83554
98	0x3fff47000431bde8	1.954834
99	0x4002a460ed80a17b	2.330263
100	0x400367ecfe9b7bf2	2.425745
101	0x40066aaf35e310dc	2.802092
102	0x4006fd24180d3cff	2.873604
103	0x4009f892ee84ad79	3.246374
104	0x400a5a72a7bd48cb	3.294164
105	0x400d45132f87ad08	3.658728
106	0x400d77b5aea3161a	3.683452
107	0x401023f20a73f749	4.035103
108	0x401026b11c6d1e11	4.037785
109	0x40117cb295e9e1b1	4.371775
110	0x40116a4a8c154c98	4.3538
111	0x4012a9613d31b9b6	4.66541
112	0x4012839a7c17a893	4.628519
113	0x4013a705425f2021	4.913106
114	0x40136ff79c842fa5	4.859343
115	0x4014731a08bfc222	5.112404
116	0x40142d2aa5c5f7c6	5.044108
117	0x40150b9b66f9335d	5.261335
118	0x4014b96bfca85cab	5.181076
119	0xbff03446f9b994e2	-1.012763
120	0xbfe4d653c9abb01d	-0.651163
121	0xbff16a19439de482	-1.088403
122	0x3ed92a737110e454	6e-06
123	0x3ed92a737110e454	6e-06
124	0x3fba9a2c669057d1	0.103915
125	0x3ed92a737110e454	6e-06
126	0x3ed4f8b588e368f1	5e-06
127	0x3ec92a737110e454	3e-06
128	0xbfe174f50a02b841	-0.545527
129	0x3ed92a737110e454	6e-06
130	0x3ff1618ce2d1f1d0	1.086316
131	0x3ed4f8b588e368f1	5e-06
132	0x3ed4f8b588e368f1	5e-06
133	0x4000ab662fdfc19c	2.083691
134	0x3ed4f8b588e368f1	5e-06
135	0x3ed4f8b588e368f1	5e-06
136	0x3ffdcee06d938152	1.863007
137	0x3ed92a737110e454	6e-06
138	0x3ff6005a2d72ffd2	1.375086
139	0x3ed4f8b588e368f1	5e-06
140	0x3ed4f8b588e368f1	5e-06
141	0x3ff1c99285a921cd	1.111712
142	0x3ed4f8b588e368f1	5e-06
143	0x3feade17e34b9453	0.839611
144	0x3ed4f8b588e368f1	5e-06
145	0x3fe1efbd273d5bab	0.560515
146	0x3ed4f8b588e368f1	5e-06
147	0x3fcec5da6a444178	0.240413
148	0x3ed4f8b588e368f1	5e-06
149	0x3ed4f8b588e368f1	5e-06
150	0x3feafa58f7121ab5	0.84306
151	0x3ed92a737110e454	6e-06
152	0x3ed0c6f7a0b5ed8d	4e-06
153	0x3ffae264e48626f6	1.680272
154	0xc00536d86ec17ebb	-2.65178
155	0x3ed4f8b588e368f1	5e-06
156	0x3ed92a737110e454	6e-06
157	0xc006608d8ec95bff	-2.797145
158	0x3ed4f8b588e368f1	5e-06
159	0xc008f767903211cb	-3.120803
160	0xc0089f3061c79b35	-3.077729
161	0x3ed92a737110e454	6e-06
162	0xc0091b5b70691ea8	-3.138358
163	0x3ed4f8b588e368f1	5e-06
164	0x3ed4f8b588e368f1	5e-06
165	0xc00907f023e9ea14	-3.128876
166	0x3ed92a737110e454	6e-06
167	0xbff492674080f990	-1.285743
168	0x3fe175019f3c70ca	0.545533
169	0xbff174f3fd933e36	-1.091053
170	0xbff174efcbd55608	-1.091049
171	0xbff174efcbd55608	-1.091049
172	0x400a8ab68cef672c	3.317731
173	0x4008cdc65c70435f	3.100476
174	0x3ff174fb549f9485	1.09106
175	0xbff41b7cfe586013	-1.256711
176	0xc0185fab53d640ea	-6.093427
177	0xc0041df8f4730404	-2.514635
178	0xc003392a737110e4	-2.402913
179	0xc0178a12f901083e	-5.884838
180	0xc00d3d22856605ee	-3.654851
181	0xbfecaaa5c5f7c676	-0.895831
182	0x3fcb57c4e2f37fbf	0.213616
183	0x3ff0bd102bc72e27	1.046158
184	0x4015529bf162ae4b	5.330673
185	0x4002fe892253111f	2.374285
186	0x4017a2ca9ac36545	5.908976
187	0x400eb0a45d41fa76	3.836251
188	0x3fec65061416377a	0.887332
189	0xbfc5922962cfd8f1	-0.168523
190	0xc008155ffe6d58c9	-3.010437
191	0xc016d3508f648c72	-5.706362
192	0xc0031b0b39192642	-2.388205
193	0xc01784acf312b1b3	-5.879566
194	0xc0109ee4e26d4802	-4.15517
195	0xbfe9e0285ec3dab6	-0.808613
196	0x3ff5812599ed7c70	1.34403
197	0x3feccc532a497fa6	0.899942
198	0x401259aa1d755bcd	4.587563
199	0x4007819c9d5a187a	2.938287
200	0x40179780346dc5d6	5.89795
201	0x400302f512663411	2.376444
202	0x400ec9670196d8f5	3.848341
203	0x3fecc62a1b5c7cd9	0.89919
204	0xbfcbfb267c6b8b69	-0.218602
205	0xbfefe8c692f6e829	-0.997165
206	0xc011f427c7c5260f	-4.488433
207	0xc006d700474d9c6b	-2.854981
208	0xc005752977c88e7a	-2.682208
209	0xc017d74927913e81	-5.96024
210	0xc010277ff151e753	-4.038574
211	0xbff6f5d13d74d595	-1.435014
212	0xbfe4bbb1f255f352	-0.647912
213	0x4007c567125dd096	2.971388
214	0x401569991361dc94	5.353123
215	0x4017efa48301a7a0	5.984026
216	0x40056199780baa58	2.672656
217	0x4010562ed352220c	4.084163
218	0x3ff6e57a786c2268	1.431025
219	0x3fbcdc8754f3775c	0.11274
220	0xc0085d07c84b5dcc	-3.045425
221	0xc01697df19d66adb	-5.648312
222	0xc0013c2a8869c66d	-2.154378
223	0xbfe59bdc69f8c21e	-0.675276
224	0x40015d145d851655	2.170449
225	0xbed4f8b588e368f1	-5e-06
226	0x3fe937e90ff97247	0.788075
227	0x3ed4f8b588e368f1	5e-06
228	0x3ed4f8b588e368f1	5e-06
229	0xbff41d031055b899	-1.257083
230	0xc00ee81cb46bacf7	-3.863336
231	0xbfd26e4c0df58c09	-0.287982
232	0x3fe7d807fed20297	0.745121
233	0x400410af5fd47bee	2.508147
234	0x3ffbbc408d8ec95c	1.73346
235	0x40132ac79702e664	4.791777
236	0x4005a09c3ce2089e	2.703423
237	0x40183e679463cfb3	6.060942
238	0x3ffd7b0a2ca9ac36	1.842539
239	0x400d7e68a0d349bf	3.686723
240	0xc004389374bc6a7f	-2.527625
241	0xc00811aeb3dd11be	-3.008634
242	0xc0064512231832fd	-2.783726
243	0xc008579c842fa509	-3.042779
244	0xbffbb150dae3e6c5	-1.73079
245	0xbffa5b20b8066c2b	-1.647248
246	0x4007b51bd61f5be6	2.963432
247	0x4006ef440af1cb8a	2.866829
248	0x3fe5ce5929670197	0.681439
249	0xbfd0c1acde19fc2b	-0.261821
250	0xbff063810e8858ff	-1.024293
251	0xbed92a737110e454	-6e-06
252	0xbfe7a834d26fa3fd	-0.739283
253	0xc00901986b9c304d	-3.125779
254	0xbed4f8b588e368f1	-5e-06
255	0xc0024b6e935b91f7	-2.286832

labels f8 [6106]
0	0x0000000000000000	0.0
1	0x0000000000000000	0.0
2	0x0000000000000000	0.0
3	0x0000000000000000	0.0
4	0x0000000000000000	0.0
5	0x0000000000000000	0.0
6	0x0000000000000000	0.0
7	0x0000000000000000	0.0
8	0x0000000000000000	0.0
9	0x0000000000000000	0.0
10	0x0000000000000000	0.0
11	0x0000000000000000	0.0
12	0x0000000000000000	0.0
13	0x0000000000000000	0.0
14	0x0000000000000000	0.0
15	0x0000000000000000	0.0
16	0x0000000000000000	0.0
17	0x0000000000000000	0.0
18	0x0000000000000000	0.0
19	0x0000000000000000	0.0
20	0x0000000000000000	0.0
21	0x0000000000000000	0.0
22	0x0000000000000000	0.0
23	0x0000000000000000	0.0
24	0x0000000000000000	0.0
25	0x0000000000000000	0.0
26	0x0000000000000000	0.0
27	0x0000000000000000	0.0
28	0x0000000000000000	0.0
29	0x0000000000000000	0.0
30	0x0000000000000000	0.0
31	0x0000000000000000	0.0
32	0x0000000000000000	0.0
33	0x0000000000000000	0.0
34	0x0000000000000000	0.0
35	0x0000000000000000	0.0
36	0x0000000000000000	0.0
37	0x0000000000000000	0.0
38	0x0000000000000000	0.0
39	0x0000000000000000	0.0
40	0x0000000000000000	0.0
41	0x0000000000000000	0.0
42	0x0000000000000000	0.0
43	0x0000000000000000	0.0
44	0x0000000000000000	0.0
45	0x0000000000000000	0.0
46	0x0000000000000000	0.0
47	0x0000000000000000	0.0
48	0x0000000000000000	0.0
49	0x0000000000000000	0.0
50	0x0000000000000000	0.0
51	0x0000000000000000	0.0
52	0x0000000000000000	0.0
53	0x0000000000000000	0.0
54	0x0000000000000000	0.0
55	0x0000000000000000	0.0
56	0x0000000000000000	0.0
57	0x0000000000000000	0.0
58	0x0000000000000000	0.0
59	0x0000000000000000	0.0
60	0x0000000000000000	0.0
61	0x0000000000000000	0.0
62	0x0000000000000000	0.0
63	0x0000000000000000	0.0
64	0x0000000000000000	0.0
65	0x0000000000000000	0.0
66	0x0000000000000000	0.0
67	0x0000000000000000	0.0
68	0x0000000000000000	0.0
69	0x0000000000000000	0.0
70	0x0000000000000000	0.0
71	0x0000000000000000	0.0
72	0x0000000000000000	0.0
73	0x0000000000000000	0.0
74	0x0000000000000000	0.0
75	0x0000000000000000	0.0
76	0x0000000000000000	0.0
77	0x0000000000000000	0.0
78	0x0000000000000000	0.0
79	0x0000000000000000	0.0
80	0x0000000000000000	0.0
81	0x0000000000000000	0.0
82	0x0000000000000000	0.0
83	0x0000000000000000	0.0
84	0x0000000000000000	0.0
85	0x0000000000000000	0.0
86	0x0000000000000000	0.0
87	0x0000000000000000	0.0
88	0x0000000000000000	0.0
89	0x0000000000000000	0.0
90	0x0000000000000000	0.0
91	0x0000000000000000	0.0
92	0x0000000000000000	0.0
93	0x0000000000000000	0.0
94	0x0000000000000000	0.0
95	0x0000000000000000	0.0
96	0x0000000000000000	0.0
97	0x0000000000000000	0.0
98	0x0000000000000000	0.0
99	0x0000000000000000	0.0
100	0x0000000000000000	0.0
101	0x0000000000000000	0.0
102	0x0000000000000000	0.0
103	0x0000000000000000	0.0
104	0x0000000000000000	0.0
105	0x0000000000000000	0.0
106	0x0000000000000000	0.0
107	0x0000000000000000	0.0
108	0x0000000000000000	0.0
109	0x0000000000000000	0.0
110	0x0000000000000000	0.0
111	0x0000000000000000	0.0
112	0x0000000000000000	0.0
113	0x0000000000000000	0.0
114	0x0000000000000000	0.0
115	0x0000000000000000	0.0
116	0x0000000000000000	0.0
117	0x0000000000000000	0.0
118	0x0000000000000000	0.0
119	0x0000000000000000	0.0
120	0x0000000000000000	0.0
121	0x0000000000000000	0.0
122	0x0000000000000000	0.0
123	0x0000000000000000	0.0
124	0x0000000000000000	0.0
125	0x0000000000000000	0.0
126	0x0000000000000000	0.0
127	0x0000000000000000	0.0
128	0x0000000000000000	0.0
129	0x0000000000000000	0.0
130	0x0000000000000000	0.0
131	0x0000000000000000	0.0
132	0x0000000000000000	0.0
133	0x0000000000000000	0.0
134	0x0000000000000000	0.0
135	0x0000000000000000	0.0
136	0x0000000000000000	0.0
137	0x0000000000000000	0.0
138	0x0000000000000000	0.0
139	0x0000000000000000	0.0
140	0x0000000000000000	0.0
141	0x0000000000000000	0.0
142	0x0000000000000000	0.0
143	0x0000000000000000	0.0
144	0x0000000000000000	0.0
145	0x0000000000000000	0.0
146	0x0000000000000000	0.0
147	0x0000000000000000	0.0
148	0x0000000000000000	0.0
149	0x0000000000000000	0.0
150	0x0000000000000000	0.0
151	0x0000000000000000	0.0
152	0x0000000000000000	0.0
153	0x0000000000000000	0.0
154	0x0000000000000000	0.0
155	0x0000000000000000	0.0
156	0x0000000000000000	0.0
157	0x0000000000000000	0.0
158	0x0000000000000000	0.0
159	0x0000000000000000	0.0
160	0x0000000000000000	0.0
161	0x0000000000000000	0.0
162	0x0000000000000000	0.0
163	0x0000000000000000	0.0
164	0x0000000000000000	0.0
165	0x0000000000000000	0.0
166	0x0000000000000000	0.0
167	0x0000000000000000	0.0
168	0x0000000000000000	0.0
169	0x0000000000000000	0.0
170	0x0000000000000000	0.0
171	0x0000000000000000	0.0
172	0x0000000000000000	0.0
173	0x0000000000000000	0.0
174	0x0000000000000000	0.0
175	0x0000000000000000	0.0
176	0x0000000000000000	0.0
177	0x0000000000000000	0.0
178	0x0000000000000000	0.0
179	0x0000000000000000	0.0
180	0x0000000000000000	0.0
181	0x0000000000000000	0.0
182	0x0000000000000000	0.0
183	0x0000000000000000	0.0
184	0x0000000000000000	0.0
185	0x0000000000000000	0.0
186	0x0000000000000000	0.0
187	0x0000000000000000	0.0
188	0x0000000000000000	0.0
189	0x0000000000000000	0.0
190	0x0000000000000000	0.0
191	0x0000000000000000	0.0
192	0x0000000000000000	0.0
193	0x0000000000000000	0.0
194	0x0000000000000000	0.0
195	0x0000000000000000	0.0
196	0x0000000000000000	0.0
197	0x0000000000000000	0.0
198	0x0000000000000000	0.0
199	0x0000000000000000	0.0
200	0x0000000000000000	0.0
201	0x0000000000000000	0.0
202	0x0000000000000000	0.0
203	0x0000000000000000	0.0
204	0x0000000000000000	0.0
205	0x0000000000000000	0.0
206	0x0000000000000000	0.0
207	0x0000000000000000	0.0
208	0x0000000000000000	0.0
209	0x0000000000000000	0.0
210	0x0000000000000000	0.0
211	0x0000000000000000	0.0
212	0x0000000000000000	0.0
213	0x0000000000000000	0.0
214	0x0000000000000000	0.0
215	0x0000000000000000	0.0
216	0x0000000000000000	0.0
217	0x0000000000000000	0.0
218	0x0000000000000000	0.0
219	0x0000000000000000	0.0
220	0x0000000000000000	0.0
221	0x0000000000000000	0.0
222	0x0000000000000000	0.0
223	0x0000000000000000	0.0
224	0x0000000000000000	0.0
225	0x0000000000000000	0.0
226	0x0000000000000000	0.0
227	0x0000000000000000	0.0
228	0x0000000000000000	0.0
229	0x0000000000000000	0.0
230	0x0000000000000000	0.0
231	0x0000000000000000	0.0
232	0x0000000000000000	0.0
233	0x0000000000000000	0.0
234	0x0000000000000000	0.0
235	0x0000000000000000	0.0
236	0x0000000000000000	0.0
237	0x0000000000000000	0.0
238	0x0000000000000000	0.0
239	0x0000000000000000	0.0
240	0x0000000000000000	0.0
241	0x0000000000000000	0.0
242	0x0000000000000000	0.0
243	0x0000000000000000	0.0
244	0x0000000000000000	0.0
245	0x0000000000000000	0.0
246	0x0000000000000000	0.0
247	0x0000000000000000	0.0
248	0x0000000000000000	0.0
249	0x0000000000000000	0.0
250	0x0000000000000000	0.0
251	0x0000000000000000	0.0
252	0x0000000000000000	0.0
253	0x0000000000000000	0.0
254	0x0000000000000000	0.0
255	0x0000000000000000	0.0
