classification/data/Segmented_Models/model_82/model_84.npz (npz, 873154 bytes, 3 tensors)

vertices (column-major) f8 [7782, 3]
-2.664586 -3.331156 -2.3581 -42.369862 -41.893114 -41.428404 -34.911192 -35.544685
28.071557 29.055122 23.618504 24.39467 23.57889 -6.616448 -6.717585 -7.49012
-3.21318 27.029751 26.411329 27.248173 -4.209202 -3.547796 -3.223491 23.939617
24.324889 24.520397 -32.094191 -32.708011 -2.67147 -1.984132 -1.84017 -9.387108
-8.677438 -2.000405 -1.761401 -2.612446 -4.673912 -4.791561 -37.688064 -37.88982
-38.512348 -42.665287 -42.13564 -43.100491 15.297019 -42.966706 -43.844204 -43.104547
-38.911617 -39.705 -39.389821 -0.497456 -1.410591 -0.962558 -42.49163 -42.938206
-43.463364 -42.86274 -42.309086 -9.967662 -9.879385 -10.512278 15.462541 -0.912378
-1.942664 1.932728 1.497307 1.049254 1.016034 0.058785 -40.423115 -40.369245
-41.017692 -9.512444 -8.858799 -1.23904 -2.002519 -11.70241 -12.452696 -2.262526
-2.796912 -3.178775 22.688791 22.995752 27.647298 27.769657 25.79051 25.710842
26.512032 24.24866 24.920504 -13.111439 -13.467699 -12.608582 -9.140539 -8.983469
28.5561 28.802908 29.397175 28.413052 -2.819629 16.149889 -41.482196 -39.416425
-39.12879 23.594583 23.592022 2.799707 2.503878 24.96084 25.124909 -12.196855
-13.173896 -12.494151 0.82568 0.301648 -0.178908 -42.414729 25.433131 26.246832
26.438944 -4.636386 -5.255422 -5.378423 -5.630081 -4.945409 -5.001973 -4.126057
-43.807011 -43.794899 -40.982248 -11.422746 -12.331342 -38.809536 -38.818588 -37.982315
-41.643101 -41.89555 -8.708979 -7.912622 -8.232458 24.198687 -9.345733 -8.481409
-9.022135 -36.109543 -36.697976 -36.763378 -30.055428 -30.214159 -29.202205 27.693755
28.289567 28.496056 -5.427202 -6.158142 27.119234 -8.279353 -10.984409 -11.269498
-10.517785 -37.914062 -41.776695 24.00642 24.421289 -38.406424 -21.772587 -21.192126
-22.179775 -8.182175 29.207934 29.156273 29.966486 12.966536 12.4938 -15.449271
-38.997095 -39.861655 -43.554859 -7.529091 -30.014054 20.226124 20.574812 19.929466
-12.781239 -12.264621 -11.96284 29.273842 -39.64694 -39.81664 0.444699 -0.01651
0.941678 29.543367 29.844388 28.936978 -5.09877 -4.267811 -4.894282 -5.195027
-4.529614 -3.898885 -9.544801 -9.000629 15.453196 -7.379303 -13.214172 -13.9938
-13.243986 -33.543855 26.900738 -5.857999 -14.577172 -13.683847 -14.44587 -6.535527
-35.637062 -36.35655 -42.861321 -10.34622 -9.936722 -10.648301 27.564241 -42.82601
-14.589397 -13.736349 -13.832909 -7.392392 -37.29105 -29.005243 -38.716262 -3.635899
-4.269217 -10.751663 -11.500397 29.60822 -29.436933 -12.427358 -11.735975 -11.767999
-10.971465 29.228093 29.926028 -39.772515 -14.573613 -13.645098 -38.999644 -39.353992
-38.365368 1.112417 0.652691 29.160366 30.019855 -4.149758 -0.799902 -0.528932
00000000: 2009 fb76 1251 05c0 50fe ee1d 35a6 0ac0
00000010: af94 6588 63dd 02c0 3e04 55a3 572f 45c0
00000020: c4cc 3e8f 51f2 44c0 e0bc 38f1 d5b6 44c0
00000030: 3c30 80f0 a174 41c0 96cf f23c b8c5 41c0
00000040: c4cc 3e8f 5112 3c40 454a b379 1c0e 3d40
00000050: f871 3447 569e 3740 5bb6 d617 0965 3840
00000060: 40fb 9122 3294 3740 0abd fe24 3e77 1ac0
00000070: 9066 2c9a cede 1ac0 4b76 6c04 e2f5 1dc0
00000080: 4d4a 41b7 97b4 09c0 f705 f4c2 9d07 3b40
00000090: 79e5 7adb 4c69 3a40 0ec0 0644 883f 3b40
000000a0: fb07 910c 39d6 10c0 7409 87de e261 0cc0
000000b0: 4a9a 3fa6 b5c9 09c0 00c4 5dbd 8af0 3740
000000c0: 84d4 edec 2b53 3840 bfef dfbc 3885 3840
000000d0: ed49 6073 0e0c 40c0 a81a bd1a a05a 40c0
000000e0: 01f6 d1a9 2b5f 05c0 3527 2f32 01bf ffbf
000000f0: fe48 1119 5671 fdbf 390a 1005 33c6 22c0
00000100: a322 4e27 d95a 21c0 ff09 2e56 d400 00c0
00000110: 6344 a2d0 b22e fcbf 3387 a416 4ae6 04c0
00000120: 1e87 c1fc 15b2 12c0 fe27 7ff7 8e2a 13c0
00000130: 08c7 2c7b 12d8 42c0 d2a9 2b9f e5f1 42c0
00000140: e415 889e 9441 43c0 1bba d91f 2855 45c0
00000150: c503 caa6 5c11 45c0 6b45 9be3 dc8c 45c0
00000160: cd94 d6df 1298 2e40 6a6c af05 bd7b 45c0
00000170: 8193 6de0 0eec 45c0 8cf2 cccb 618d 45c0
00000180: 23bd a8dd af74 43c0 0ad7 a370 3dda 43c0
00000190: a225 8fa7 e5b1 43c0 06bc ccb0 51d6 dfbf
000001a0: cf82 50de c791 f6bf f419 506f 46cd eebf
000001b0: c2dd 59bb ed3e 45c0 9b74 5b22 1778 45c0
000001c0: 6612 f582 4fbb 45c0 bc79 aa43 6e6e 45c0
000001d0: 63d3 4a21 9027 45c0 f629 c764 71ef 23c0
000001e0: 982f 2fc0 3ec2 23c0 abeb 504d 4906 25c0
000001f0: 471e 882c d2ec 2e40 5de0 f258 3332 edbf
00000200: 5ddd b1d8 2615 ffbf 0c04 0132 74ec fe3f
00000210: 6326 512f f8f4 f73f aa27 f38f bec9 f03f
00000220: 2bfc 19de ac41 f03f d39f fd48 1119 ae3f
00000230: 39b9 dfa1 2836 44c0 139b 8f6b 432f 44c0
00000240: 4eb3 40bb 4382 44c0 1710 5a0f 5f06 23c0
00000250: cdac a580 b4b7 21c0 33f9 669b 1bd3 f3bf
00000260: f1f2 74ae 2805 00c0 48c4 9448 a267 27c0
00000270: 5e0f 26c5 c7e7 28c0 2dcc 423b a719 02c0
00000280: d251 0e66 1360 06c0 3cbd 5296 216e 09c0
00000290: 75c7 629b 54b0 3640 35ed 629a e9fe 3640
000002a0: 26c4 5c52 b5a5 3b40 3123 bc3d 08c5 3b40
000002b0: 3529 05dd 5eca 3940 8c9f c6bd f9b5 3940
000002c0: 6781 7687 1483 3a40 c8d2 872e a83f 3840
000002d0: 52d6 6f26 a6eb 3840 76ff 5888 0e39 2ac0
000002e0: 6abe 4a3e 76ef 2ac0 59de 550f 9837 29c0
000002f0: 06a0 51ba f447 22c0 7842 af3f 89f7 21c0
00000300: 3c4e d191 5c8e 3c40 5fb2 f160 8bcd 3c40
00000310: efc9 c342 ad65 3d40 228c 9fc6 bd69 3c40
00000320: 52d3 2ea6 998e 06c0 b807 2120 5f26 3040
00000330: 8a21 3999 b8bd 44c0 4f1e 166a 4db5 43c0
00000340: a306 d330 7c90 43c0 f0c1 6b97 3698 3740
00000350: 3483 f8c0 8e97 3740 e50e 9bc8 cc65 0640
00000360: 1f64 5930 f107 0440 4bb0 389c f9f5 3840
00000370: dff9 4509 fa1f 3940 b01b b62d ca64 28c0
00000380: 78cf 81e5 0859 2ac0 4792 205c 01fd 28c0
00000390: cec2 9e76 f86b ea3f fed7 b969 334e d33f
000003a0: 0613 7f14 75e6 c6bf f5d9 01d7 1535 45c0
000003b0: 3fe2 57ac e16e 3940 359b c761 303f 3a40
000003c0: 82c6 4ca2 5e70 3a40 6e87 86c5 a88b 12c0
000003d0: 35b7 4258 8d05 15c0 8237 a451 8183 15c0
000003e0: eb52 23f4 3385 16c0 5260 014c 19c8 13c0
000003f0: 68e6 c935 0502 14c0 3dba 1116 1581 10c0
00000400: 9241 ee22 4ce7 45c0 c24f 1c40 bfe5 45c0
00000410: dc47 6e4d ba7d 44c0 9607 e929 72d8 26c0
00000420: 1c95 9ba8 a5a9 28c0 a377 2ae0 9e67 43c0
00000430: f372 d87d c768 43c0 64af 777f bcfd 42c0
00000440: 3083 3122 51d2 44c0 66f7 e461 a1f2 44c0
00000450: 001a a54b ff6a 21c0 c170 ae61 86a6 1fc0
00000460: 1b63 27bc 0477 20c0 ee23 b726 dd32 3840
00000470: c24b 70ea 03b1 22c0 0800 8e3d 7bf6 20c0
00000480: a531 5a47 550b 22c0 bc40 4981 050e 42c0
00000490: 4ab2 0e47 5759 42c0 323e cc5e b661 42c0
000004a0: 5e48 8787 300e 3ec0 e124 cd1f d336 3ec0
000004b0: 7216 f6b4 c333 3dc0 bd6f 7ced 99b1 3b40
000004c0: 3700 1b10 214a 3c40 0dfc a886 fd7e 3c40
000004d0: a724 eb70 74b5 15c0 027f f8f9 efa1 18c0
000004e0: 3e92 921e 861e 3b40 3814 3e5b 078f 20c0
000004f0: b0c6 d974 04f8 25c0 c1ac 50a4 fb89 26c0
00000500: feb7 921d 1b09 25c0 1842 cefb fff4 42c0
00000510: bdfb e3bd 6ae3 44c0 520a babd a401 3840
00000520: 202a 8d98 d96b 3840 9e27 9eb3 0534 43c0
00000530: 9450 fa42 c8c5 35c0 17b6 662b 2f31 35c0
00000540: 6ea3 01bc 052e 36c0 304c a60a 465d 20c0
00000550: fab9 a129 3b35 3d40 703f e081 0128 3d40
00000560: b70a 62a0 6bf7 3d40 35d0 7cce ddee 2940
00000570: 9487 855a d3fc 2840 1a15 38d9 06e6 2ec0
00000580: a800 18cf a07f 43c0 aab7 06b6 4aee 43c0
00000590: 1572 a59e 05c7 45c0 876e f607 ca1d 1ec0
000005a0: c460 fe0a 9903 3ec0 38d7 3043 e339 3440
000005b0: 2e59 15e1 2693 3440 73be d87b f1ed 3340
000005c0: 30b8 e68e fe8f 29c0 6dab 5967 7c87 28c0
000005d0: b08f 4e5d f9ec 27c0 6f45 6282 1a46 3d40
000005e0: b43c 0fee ced2 43c0 7f4d d6a8 87e8 43c0
000005f0: 0117 64cb f275 dc3f b953 3a58 ffe7 90bf
00000600: 249b abe6 3922 ee3f c3b9 8619 1a8b 3d40
00000610: 8522 ddcf 29d8 3d40 4d12 4bca ddef 3c40
00000620: be4d 7ff6 2365 14c0 4609 fa0b 3d12 11c0
00000630: 1b9b 1da9 be93 13c0 1459 6b28 b5c7 14c0
00000640: d503 e621 531e 12c0 70eb 6e9e ea30 0fc0
00000650: fca7 1b28 f016 23c0 bedb bc71 5200 22c0
00000660: 255b 5d4e 09e8 2e40 4819 7101 6884 1dc0
00000670: 1570 cff3 a76d 2ac0 9487 855a d3fc 2bc0
00000680: 1c5d a5bb eb7c 2ac0 0f62 670a 9dc5 40c0
00000690: b343 fcc3 96e6 3a40 b900 344a 976e 17c0
000006a0: 7555 a016 8327 2dc0 78ef a831 215e 2bc0
000006b0: f888 9812 49e4 2cc0 fe7f 9c30 6124 1ac0
000006c0: 1ec3 633f 8bd1 41c0 c4b1 2e6e a32d 42c0
000006d0: d32d 3bc4 3f6e 45c0 3771 72bf 43b1 24c0
000006e0: 2ee3 a606 9adf 23c0 9eed d11b ee4b 25c0
000006f0: f50f 2219 7290 3b40 a015 18b2 ba69 45c0
00000700: 95b8 8e71 c52d 2dc0 76e2 72bc 0279 2bc0
00000710: 9016 670c 73aa 2bc0 1fd9 5c35 cf91 1dc0
00000720: 1ac0 5b20 41a5 42c0 6e88 f19a 5701 3dc0
00000730: 0caf 2479 ae5b 43c0 0c79 0437 5216 0dc0
00000740: e31b 0a9f ad13 11c0 fc39 05f9 d980 25c0
00000750: 7408 1c09 3400 27c0 ebc5 504e b49b 3d40
00000760: 0d8b 51d7 da6f 3dc0 315e f3aa ceda 28c0
00000770: e258 17b7 d178 27c0 aeb8 382a 3789 27c0
00000780: d36a 48dc 63f1 25c0 5072 874d 643a 3d40
00000790: 272e c72b 10ed 3d40 b055 82c5 e1e2 43c0
000007a0: f31e 679a b025 2dc0 166e f948 4a4a 2bc0
000007b0: 42d2 a755 f47f 43c0 d785 1f9c 4fad 43c0
000007c0: a180 ed60 c42e 43c0 1d3b a8c4 75cc f13f
000007d0: d997 6c3c d8e2 e43f ed63 05bf 0d29 3d40
000007e0: 7ea9 9f37 1505 3e40 ea41 4129 5a99 10c0
000007f0: e528 4014 cc98 e9bf 16da 39cd 02ed e0bf

vertex_normals (column-major) f8 [7782, 3]
-0.20686 -1.299696 -0.620574 -1.922006 -0.230357 -0.311744 -4e-06 -7e-06
0.87789 3.009725 -0.042917 -0.3823 -1.217293 -2e-06 0.054016 -0.000696
-0.087686 0.321573 0.388412 1.775924 0.286976 0.201664 1.808608 -5e-06
0.121518 -0.011243 -6e-06 -1.6e-05 -6e-06 -5e-06 -4e-06 0.185567
0.90712 -5e-06 0.009562 -6e-06 -0.198999 -0.915286 0.378915 2.193874
0.20083 -2.818888 -0.524808 -3.052693 -5e-06 -0.502022 -3.244793 -0.781474
-5e-06 -5e-06 -7e-06 -1.4508 -3.546692 -4.214712 -0.226523 -1.318698
-2.942154 -2.024766 -0.123319 -0.418135 -1.598785 -2.539136 -5e-06 -1.090644
-2.702321 -4e-06 -0.025978 -0.180881 -5e-06 -0.059273 -1.40228 -0.135232
-1.166647 0.007114 -5e-06 -0.411427 -1.076119 3.364435 2.030319 -0.002803
-0.428245 -0.050118 -0.124399 -0.053234 0.668452 1.940954 0.278589 0.993645
1.364868 -0.135933 -0.39828 1.174639 1.355033 3.757059 -0.245351 -1.02296
0.332374 0.087028 1.67876 2.760749 -2.780688 -5e-06 -0.00437 -5e-06
-4e-06 -0.004027 -0.372351 -0.001233 -0.033829 0.498052 0.200454 0.007725
-3e-06 -4e-06 -0.320183 -1.998141 -2.795528 -0.319661 -0.25049 -0.006417
-5e-06 -7e-06 -0.191918 -0.007265 -0.568033 0.788219 0.191012 1.431292
-3.055101 -3.796104 -0.334494 2.171434 0.748715 0.305762 0.505622 2.824985
-0.542054 -2.223524 -5e-06 0.003656 -5e-06 -1.923637 0.485615 0.676482
0.086914 0.146916 -0.006185 0.222642 -4e-06 -3e-06 -3e-06 0.214259
0.516765 1.614888 0.032791 -0.28706 -7e-06 -0.157773 -0.12897 -0.018606
-6e-06 0.831083 -1.806799 -2.03949 -2.479583 0.001049 -5e-06 -4e-06
-4e-06 0.082267 0.32067 0.776987 2.448189 -5e-06 -4e-06 0.009232
0.22997 -4e-06 -2.204764 0.527698 -3e-06 -6e-06 -6e-06 -6e-06
0.753725 3.437786 2.335116 2.876717 -2e-06 8.5e-05 -0.03307 -1.391724
-0.028033 0.907092 1.842634 0.07187 -5e-06 -3e-06 -4e-06 -0.896511
-1.235696 -0.455285 1.960599 1.733831 -6e-06 0.001227 4.442866 1.130824
2.678485 4.7e-05 -4e-06 0.11006 0.357088 2.819749 0.867588 0.154018
-4e-06 -4e-06 -0.626623 0.627045 2.268591 2.141749 0.060037 -0.297363
0.229363 2.518638 1.360712 -0.182158 2.20203 -5e-06 0.014664 -0.944201
-0.33668 -1.460163 -1.474166 1.516031 -4e-06 0.165061 1.050289 0.115691
1.218954 0.153737 1.907718 -0.242583 0.46766 3.351904 -0.043583 -0.542446
-0.179492 -0.081331 -1.291092 1.388079 3.918764 -1.711286 -0.505948 -1.162187
00000000: 26df 6c73 637a cabf 4cdf 6b08 8ecb f4bf
00000010: d4ee 5701 bedb e3bf d273 0b5d 89c0 febf
00000020: 4bcc b392 567c cdbf b059 2e1b 9df3 d3bf
00000030: 8ded b5a0 f7c6 d0be b75f 3e59 315c ddbe
00000040: b988 efc4 ac17 ec3f f9a0 67b3 ea13 0840
00000050: 7286 e28e 37f9 a5bf f2b0 506b 9a77 d8bf
00000060: 4965 8a39 087a f3bf 8ded b5a0 f7c6 c0be
00000070: 97e5 eb32 fca7 ab3f ec4e 779e 78ce 46bf
00000080: 952a 51f6 9672 b6bf f2b3 91eb a694 d43f
00000090: d4ee 5701 bedb d83f 71e7 c248 2f6a fc3f
000000a0: 4e29 af95 d05d d23f dee8 633e 20d0 c93f
000000b0: 228b 34f1 0ef0 fc3f f168 e388 b5f8 d4be
000000c0: 7f15 e0bb cd1b bf3f 3eaf 78ea 9106 87bf
000000d0: 54e4 1071 732a d9be 8ded b5a0 f7c6 f0be
000000e0: 54e4 1071 732a d9be f168 e388 b5f8 d4be
000000f0: 8ded b5a0 f7c6 d0be 27c1 1bd2 a8c0 c73f
00000100: 4985 b185 2007 ed3f f168 e388 b5f8 d4be
00000110: 575a 46ea 3d95 833f 54e4 1071 732a d9be
00000120: ebe5 779a cc78 c9bf b092 8fdd 054a edbf
00000130: 8eaf 3db3 2440 d83f 8e5b cccf 0d8d 0140
00000140: 8620 0725 ccb4 c93f ddb1 d826 158d 06c0
00000150: bfbb 9525 3acb e0bf 35d3 bd4e ea6b 08c0
00000160: f168 e388 b5f8 d4be 9eeb fb70 9010 e0bf
00000170: 5d51 4a08 56f5 09c0 e693 15c3 d501 e9bf
00000180: f168 e388 b5f8 d4be f168 e388 b5f8 d4be
00000190: b75f 3e59 315c ddbe bc96 900f 7a36 f7bf
000001a0: f0e0 270e a05f 0cc0 293c 6876 dddb 10c0
000001b0: f759 65a6 b4fe ccbf 4acf f412 6319 f5bf
000001c0: 5b5d 4e09 8889 07c0 016c 4084 b832 00c0
000001d0: 63b5 f97f d591 bfbf 8907 944d b9c2 dabf
000001e0: a25d 8594 9f94 f9bf 22c5 0089 2650 04c0
000001f0: f168 e388 b5f8 d4be 0b42 791f 4773 f1bf
00000200: 255a f278 5a9e 05c0 8ded b5a0 f7c6 d0be
00000210: b075 a911 fa99 9abf 15e0 bbcd 1b27 c7bf
00000220: f168 e388 b5f8 d4be 6d55 12d9 0759 aebf
00000230: ab5b 3d27 bd6f f6bf b7b3 af3c 484f c1bf
00000240: cb9f 6f0b 96aa f2bf b5f9 7fd5 9123 7d3f
00000250: f168 e388 b5f8 d4be c43f 6ce9 d154 dabf
00000260: e7aa 798e c837 f1bf 5f24 b4e5 5cea 0a40
00000270: 5394 4be3 173e 0040 00ff 942a 51f6 66bf
00000280: b83b 6bb7 5d68 dbbf 51c1 e105 11a9 a9bf
00000290: e5b4 a7e4 9cd8 bfbf 1f0e 12a2 7c41 abbf
000002a0: ee43 de72 f563 e53f 6aa5 10c8 250e ff3f
000002b0: 3c9f 01f5 66d4 d13f 79af 5a99 f0cb ef3f
000002c0: fab5 f5d3 7fd6 f53f cd3c b9a6 4066 c1bf
000002d0: 05a8 a965 6b7d d9bf c4b2 9943 52cb f23f
000002e0: 2503 4015 37ae f53f c423 f1f2 740e 0e40
000002f0: 153c 855c a967 cfbf cbdb 114e 0b5e f0bf
00000300: e59a 0299 9d45 d53f f816 d68d 7747 b63f
00000310: ce53 1d72 33dc fa3f b7b7 5b92 0316 0640
00000320: 8509 a359 d93e 06c0 f168 e388 b5f8 d4be
00000330: 1119 56f1 46e6 71bf f168 e388 b5f8 d4be
00000340: 8ded b5a0 f7c6 d0be fddc d094 9d7e 70bf
00000350: 5e81 e849 99d4 d7bf 490f 43ab 9333 54bf
00000360: 9011 50e1 0852 a1bf e945 ed7e 15e0 df3f
00000370: eb1a 2d07 7aa8 c93f 151d c9e5 3fa4 7f3f
00000380: 54e4 1071 732a c9be 8ded b5a0 f7c6 d0be
00000390: fe0c 6fd6 e07d d4bf 6ebf 7cb2 62f8 ffbf
000003a0: 166b b8c8 3d5d 06c0 40a0 3369 5375 d4bf
000003b0: 0e67 7e35 0708 d0bf 7904 3752 b648 7abf
000003c0: f168 e388 b5f8 d4be b75f 3e59 315c ddbe
000003d0: d7c1 c1de c490 c8bf a7ae 7c96 e7c1 7dbf
000003e0: 828f c18a 532d e2bf 12bf 620d 1739 e93f
000003f0: e95f 92ca 1473 c83f 446c b070 92e6 f63f
00000400: afd0 07cb d870 08c0 e1b7 21c6 6b5e 0ec0
00000410: 8b53 ad85 5968 d5bf 3561 fbc9 185f 0140
00000420: dac9 e028 79f5 e73f e602 97c7 9a91 d33f
00000430: 6a6b 4430 0e2e e03f 4486 55bc 9199 0640
00000440: be4f 55a1 8158 e1bf 05f8 6ef3 c6c9 01c0
00000450: f168 e388 b5f8 d4be 11c5 e40d 30f3 6d3f
00000460: f168 e388 b5f8 d4be 4302 4697 37c7 febf
00000470: 4e9c dcef 5014 df3f 40a5 4a94 bda5 e53f
00000480: f585 90f3 fe3f b63f 5e2b a1bb 24ce c23f
00000490: 85b6 9c4b 7155 79bf f0a6 5b76 887f cc3f
000004a0: 8ded b5a0 f7c6 d0be 54e4 1071 732a c9be
000004b0: 54e4 1071 732a c9be 39d4 efc2 d66c cb3f
000004c0: 45f5 d6c0 5689 e03f de3e abcc 94d6 f93f
000004d0: 3ece 3461 fbc9 a03f 3a58 ffe7 305f d2bf
000004e0: b75f 3e59 315c ddbe 2a8d 98d9 e731 c4bf
000004f0: a722 15c6 1682 c0bf dd99 0986 730d 93bf
00000500: 54e4 1071 732a d9be c45e 2860 3b98 ea3f
00000510: c920 7711 a6e8 fcbf fe26 1422 e050 00c0
00000520: 94bd a59c 2fd6 03c0 9a5e 622c d32f 513f
00000530: f168 e388 b5f8 d4be 8ded b5a0 f7c6 d0be
00000540: 8ded b5a0 f7c6 d0be 8a3f 8a3a 730f b53f
00000550: 84bb b376 db85 d43f 4f59 4dd7 13dd e83f
00000560: 626a 4b1d e495 0340 f168 e388 b5f8 d4be
00000570: 8ded b5a0 f7c6 d0be 3606 9d10 3ae8 823f
00000580: c8d2 872e a86f cd3f 8ded b5a0 f7c6 d0be
00000590: 662f db4e 5ba3 01c0 7844 85ea e6e2 e03f
000005a0: 54e4 1071 732a c9be 54e4 1071 732a d9be
000005b0: 54e4 1071 732a d9be 54e4 1071 732a d9be
000005c0: e6ae 25e4 831e e83f 5a2c 45f2 9580 0b40
000005d0: 42ee 224c 51ae 0240 22c7 d633 8403 0740
000005e0: 8ded b5a0 f7c6 c0be 809f 71e1 4048 163f
000005f0: ca1a f510 8dee a0bf d0ee 9062 8044 f6bf
00000600: 47c7 d5c8 aeb4 9cbf ccd2 4ecd e506 ed3f
00000610: 6ff6 07ca 6d7b fd3f d942 9083 1266 b23f
00000620: f168 e388 b5f8 d4be 54e4 1071 732a c9be
00000630: 8ded b5a0 f7c6 d0be dd22 30d6 37b0 ecbf
00000640: acc4 3c2b 69c5 f3bf c1ff 56b2 6323 ddbf
00000650: f71f 990e 9d5e ff3f d6a7 1c93 c5bd fb3f
00000660: 54e4 1071 732a d9be 65fe d137 691a 543f
00000670: 960a 2aaa 7ec5 1140 ae82 18e8 da17 f23f
00000680: cb9c 2e8b 896d 0540 e734 0bb4 3ba4 083f
00000690: 8ded b5a0 f7c6 d0be cd06 9964 e42c bc3f
000006a0: afd1 72a0 87da d63f fc6d 4f90 d88e 0640
000006b0: 94dd cce8 47c3 eb3f e866 7fa0 dcb6 c33f
000006c0: 8ded b5a0 f7c6 d0be 8ded b5a0 f7c6 d0be
000006d0: 2d7c 7dad 4b0d e4bf a9d9 03ad c010 e43f
000006e0: deff c709 1326 0240 f6ec b94c 4d22 0140
000006f0: 4f93 196f 2bbd ae3f b396 02d2 fe07 d3bf
00000700: 19cb f44b c45b cd3f eab3 03ae 2b26 0440
00000710: 6265 34f2 79c5 f53f d635 5a0e f450 c7bf
00000720: af7c 96e7 c19d 0140 f168 e388 b5f8 d4be
00000730: 7aa8 6dc3 2808 8e3f 4337 fb03 e536 eebf
00000740: eae7 4d45 2a8c d5bf 9a44 bde0 d35c f7bf
00000750: 8f00 6e16 2f96 f7bf 088e cbb8 a941 f83f
00000760: 8ded b5a0 f7c6 d0be cc2a 6c06 b820 c53f
00000770: a393 a5d6 fbcd f03f 8108 71e5 ec9d bd3f
00000780: 1041 d5e8 d580 f33f 10b3 976d a7ad c33f
00000790: 34d9 3f4f 0386 fe3f 8864 c8b1 f50c cfbf
000007a0: 596e 6935 24ee dd3f 16a7 5a0b b3d0 0a40
000007b0: 0ab9 52cf 8250 a6bf 9012 bbb6 b75b e1bf
000007c0: 8962 f206 98f9 c6bf 5da6 26c1 1bd2 b4bf
000007d0: 2409 c215 50a8 f4bf eb3a 5453 9235 f63f
000007e0: e9ef a5f0 a059 0f40 7ba4 c16d 6d61 fbbf
000007f0: 5f40 2fdc b930 e0bf b361 4d65 5198 f2bf

labels f8 [7782]
0.0 0.0 0.0 0.0 0.0 0.0 0.0 0.0
0.0 0.0 0.0 0.0 0.0 0.0 0.0 0.0
0.0 0.0 0.0 0.0 0.0 0.0 0.0 0.0
0.0 0.0 0.0 0.0 0.0 0.0 0.0 0.0
0.0 0.0 0.0 0.0 0.0 0.0 0.0 0.0
0.0 0.0 0.0 0.0 0.0 0.0 0.0 0.0
0.0 0.0 0.0 0.0 0.0 0.0 0.0 0.0
0.0 0.0 0.0 0.0 0.0 0.0 0.0 0.0
0.0 0.0 0.0 0.0 0.0 0.0 0.0 0.0
0.0 0.0 0.0 0.0 0.0 0.0 0.0 0.0
0.0 0.0 0.0 0.0 0.0 0.0 0.0 0.0
0.0 0.0 0.0 0.0 0.0 0.0 0.0 0.0
0.0 0.0 0.0 0.0 0.0 0.0 0.0 0.0
0.0 0.0 0.0 0.0 0.0 0.0 0.0 0.0
0.0 0.0 0.0 0.0 0.0 0.0 0.0 0.0
0.0 0.0 0.0 0.0 0.0 0.0 0.0 0.0
0.0 0.0 0.0 0.0 0.0 0.0 0.0 0.0
0.0 0.0 0.0 0.0 0.0 0.0 0.0 0.0
0.0 0.0 0.0 0.0 0.0 0.0 0.0 0.0
0.0 0.0 0.0 0.0 0.0 0.0 0.0 0.0
0.0 0.0 0.0 0.0 0.0 0.0 0.0 0.0
0.0 0.0 0.0 0.0 0.0 0.0 0.0 0.0
0.0 0.0 0.0 0.0 0.0 0.0 0.0 0.0
0.0 0.0 0.0 0.0 0.0 0.0 0.0 0.0
0.0 0.0 0.0 0.0 0.0 0.0 0.0 0.0
0.0 0.0 0.0 0.0 0.0 0.0 0.0 0.0
0.0 0.0 0.0 0.0 0.0 0.0 0.0 0.0
0.0 0.0 0.0 0.0 0.0 0.0 0.0 0.0
0.0 0.0 0.0 0.0 0.0 0.0 0.0 0.0
0.0 0.0 0.0 0.0 0.0 0.0 0.0 0.0
0.0 0.0 0.0 0.0 0.0 0.0 0.0 0.0
0.0 0.0 0.0 0.0 0.0 0.0 0.0 0.0
00000000: 0000 0000 0000 0000 0000 0000 0000 0000
00000010: 0000 0000 0000 0000 0000 0000 0000 0000
00000020: 0000 0000 0000 0000 0000 0000 0000 0000
00000030: 0000 0000 0000 0000 0000 0000 0000 0000
00000040: 0000 0000 0000 0000 0000 0000 0000 0000
00000050: 0000 0000 0000 0000 0000 0000 0000 0000
00000060: 0000 0000 0000 0000 0000 0000 0000 0000
00000070: 0000 0000 0000 0000 0000 0000 0000 0000
00000080: 0000 0000 0000 0000 0000 0000 0000 0000
00000090: 0000 0000 0000 0000 0000 0000 0000 0000
000000a0: 0000 0000 0000 0000 0000 0000 0000 0000
000000b0: 0000 0000 0000 0000 0000 0000 0000 0000
000000c0: 0000 0000 0000 0000 0000 0000 0000 0000
000000d0: 0000 0000 0000 0000 0000 0000 0000 0000
000000e0: 0000 0000 0000 0000 0000 0000 0000 0000
000000f0: 0000 0000 0000 0000 0000 0000 0000 0000
00000100: 0000 0000 0000 0000 0000 0000 0000 0000
00000110: 0000 0000 0000 0000 0000 0000 0000 0000
00000120: 0000 0000 0000 0000 0000 0000 0000 0000
00000130: 0000 0000 0000 0000 0000 0000 0000 0000
00000140: 0000 0000 0000 0000 0000 0000 0000 0000
00000150: 0000 0000 0000 0000 0000 0000 0000 0000
00000160: 0000 0000 0000 0000 0000 0000 0000 0000
00000170: 0000 0000 0000 0000 0000 0000 0000 0000
00000180: 0000 0000 0000 0000 0000 0000 0000 0000
00000190: 0000 0000 0000 0000 0000 0000 0000 0000
000001a0: 0000 0000 0000 0000 0000 0000 0000 0000
000001b0: 0000 0000 0000 0000 0000 0000 0000 0000
000001c0: 0000 0000 0000 0000 0000 0000 0000 0000
000001d0: 0000 0000 0000 0000 0000 0000 0000 0000
000001e0: 0000 0000 0000 0000 0000 0000 0000 0000
000001f0: 0000 0000 0000 0000 0000 0000 0000 0000
00000200: 0000 0000 0000 0000 0000 0000 0000 0000
00000210: 0000 0000 0000 0000 0000 0000 0000 0000
00000220: 0000 0000 0000 0000 0000 0000 0000 0000
00000230: 0000 0000 0000 0000 0000 0000 0000 0000
00000240: 0000 0000 0000 0000 0000 0000 0000 0000
00000250: 0000 0000 0000 0000 0000 0000 0000 0000
00000260: 0000 0000 0000 0000 0000 0000 0000 0000
00000270: 0000 0000 0000 0000 0000 0000 0000 0000
00000280: 0000 0000 0000 0000 0000 0000 0000 0000
00000290: 0000 0000 0000 0000 0000 0000 0000 0000
000002a0: 0000 0000 0000 0000 0000 0000 0000 0000
000002b0: 0000 0000 0000 0000 0000 0000 0000 0000
000002c0: 0000 0000 0000 0000 0000 0000 0000 0000
000002d0: 0000 0000 0000 0000 0000 0000 0000 0000
000002e0: 0000 0000 0000 0000 0000 0000 0000 0000
000002f0: 0000 0000 0000 0000 0000 0000 0000 0000
00000300: 0000 0000 0000 0000 0000 0000 0000 0000
00000310: 0000 0000 0000 0000 0000 0000 0000 0000
00000320: 0000 0000 0000 0000 0000 0000 0000 0000
00000330: 0000 0000 0000 0000 0000 0000 0000 0000
00000340: 0000 0000 0000 0000 0000 0000 0000 0000
00000350: 0000 0000 0000 0000 0000 0000 0000 0000
00000360: 0000 0000 0000 0000 0000 0000 0000 0000
00000370: 0000 0000 0000 0000 0000 0000 0000 0000
00000380: 0000 0000 0000 0000 0000 0000 0000 0000
00000390: 0000 0000 0000 0000 0000 0000 0000 0000
000003a0: 0000 0000 0000 0000 0000 0000 0000 0000
000003b0: 0000 0000 0000 0000 0000 0000 0000 0000
000003c0: 0000 0000 0000 0000 0000 0000 0000 0000
000003d0: 0000 0000 0000 0000 0000 0000 0000 0000
000003e0: 0000 0000 0000 0000 0000 0000 0000 0000
000003f0: 0000 0000 0000 0000 0000 0000 0000 0000
00000400: 0000 0000 0000 0000 0000 0000 0000 0000
00000410: 0000 0000 0000 0000 0000 0000 0000 0000
00000420: 0000 0000 0000 0000 0000 0000 0000 0000
00000430: 0000 0000 0000 0000 0000 0000 0000 0000
00000440: 0000 0000 0000 0000 0000 0000 0000 0000
00000450: 0000 0000 0000 0000 0000 0000 0000 0000
00000460: 0000 0000 0000 0000 0000 0000 0000 0000
00000470: 0000 0000 0000 0000 0000 0000 0000 0000
00000480: 0000 0000 0000 0000 0000 0000 0000 0000
00000490: 0000 0000 0000 0000 0000 0000 0000 0000
000004a0: 0000 0000 0000 0000 0000 0000 0000 0000
000004b0: 0000 0000 0000 0000 0000 0000 0000 0000
000004c0: 0000 0000 0000 0000 0000 0000 0000 0000
000004d0: 0000 0000 0000 0000 0000 0000 0000 0000
000004e0: 0000 0000 0000 0000 0000 0000 0000 0000
000004f0: 0000 0000 0000 0000 0000 0000 0000 0000
00000500: 0000 0000 0000 0000 0000 0000 0000 0000
00000510: 0000 0000 0000 0000 0000 0000 0000 0000
00000520: 0000 0000 0000 0000 0000 0000 0000 0000
00000530: 0000 0000 0000 0000 0000 0000 0000 0000
00000540: 0000 0000 0000 0000 0000 0000 0000 0000
00000550: 0000 0000 0000 0000 0000 0000 0000 0000
00000560: 0000 0000 0000 0000 0000 0000 0000 0000
00000570: 0000 0000 0000 0000 0000 0000 0000 0000
00000580: 0000 0000 0000 0000 0000 0000 0000 0000
00000590: 0000 0000 0000 0000 0000 0000 0000 0000
000005a0: 0000 0000 0000 0000 0000 0000 0000 0000
000005b0: 0000 0000 0000 0000 0000 0000 0000 0000
000005c0: 0000 0000 0000 0000 0000 0000 0000 0000
000005d0: 0000 0000 0000 0000 0000 0000 0000 0000
000005e0: 0000 0000 0000 0000 0000 0000 0000 0000
000005f0: 0000 0000 0000 0000 0000 0000 0000 0000
00000600: 0000 0000 0000 0000 0000 0000 0000 0000
00000610: 0000 0000 0000 0000 0000 0000 0000 0000
00000620: 0000 0000 0000 0000 0000 0000 0000 0000
00000630: 0000 0000 0000 0000 0000 0000 0000 0000
00000640: 0000 0000 0000 0000 0000 0000 0000 0000
00000650: 0000 0000 0000 0000 0000 0000 0000 0000
00000660: 0000 0000 0000 0000 0000 0000 0000 0000
00000670: 0000 0000 0000 0000 0000 0000 0000 0000
00000680: 0000 0000 0000 0000 0000 0000 0000 0000
00000690: 0000 0000 0000 0000 0000 0000 0000 0000
000006a0: 0000 0000 0000 0000 0000 0000 0000 0000
000006b0: 0000 0000 0000 0000 0000 0000 0000 0000
000006c0: 0000 0000 0000 0000 0000 0000 0000 0000
000006d0: 0000 0000 0000 0000 0000 0000 0000 0000
000006e0: 0000 0000 0000 0000 0000 0000 0000 0000
000006f0: 0000 0000 0000 0000 0000 0000 0000 0000
00000700: 0000 0000 0000 0000 0000 0000 0000 0000
00000710: 0000 0000 0000 0000 0000 0000 0000 0000
00000720: 0000 0000 0000 0000 0000 0000 0000 0000
00000730: 0000 0000 0000 0000 0000 0000 0000 0000
00000740: 0000 0000 0000 0000 0000 0000 0000 0000
00000750: 0000 0000 0000 0000 0000 0000 0000 0000
00000760: 0000 0000 0000 0000 0000 0000 0000 0000
00000770: 0000 0000 0000 0000 0000 0000 0000 0000
00000780: 0000 0000 0000 0000 0000 0000 0000 0000
00000790: 0000 0000 0000 0000 0000 0000 0000 0000
000007a0: 0000 0000 0000 0000 0000 0000 0000 0000
000007b0: 0000 0000 0000 0000 0000 0000 0000 0000
000007c0: 0000 0000 0000 0000 0000 0000 0000 0000
000007d0: 0000 0000 0000 0000 0000 0000 0000 0000
000007e0: 0000 0000 0000 0000 0000 0000 0000 0000
000007f0: 0000 0000 0000 0000 0000 0000 0000 0000
