classification/data/Segmented_Models/model_64/model_66.npz (npz, 960034 bytes, 3 tensors)

vertices (column-major) f8 [7988, 3]
000000 b5 e0 45 5f 41 ce 3c 40 63 b9 a5 d5 90 58 3c 40
       28.805685 28.34596
000010 ab 5b 3d 27 bd 0f 3c 40 9b 75 c6 f7 c5 e1 3b 40
       28.06148 27.881927
000020 1d 92 5a 28 99 1c 3d 40 70 41 b6 2c 5f 37 3e 40
       29.111712 30.216296
000030 69 00 6f 81 04 cd 3d 40 eb c3 7a a3 56 64 3c 40
       29.80085 28.391947
000040 e5 f2 1f d2 6f b7 3c 40 d3 f7 1a 82 e3 42 3c 40
       28.71655 28.261284
000050 f0 32 c3 46 59 23 3c 40 24 0e d9 40 ba cc 3b 40
       28.138081 27.799717
000060 e2 73 27 d8 7f 0d 3d 40 15 c4 40 d7 be 08 3d 40
       29.052732 29.034162
000070 77 9d 0d f9 67 66 3d 40 85 eb 51 b8 1e e1 3c 40
       29.400024 28.879375
000080 3e e7 6e d7 4b 83 3c 40 55 a3 57 03 94 ae 3f 40
       28.512876 31.681946
000090 73 ba 2c 26 36 ff 3e 40 0c 1e a6 7d 73 1b 40 40
       30.99692 32.214462
0000a0 52 27 a0 89 b0 95 3e 40 d4 49 b6 ba 9c 12 3e 40
       30.584725 30.072704
0000b0 ba 4d b8 57 e6 c1 3b 40 a6 46 e8 67 ea 79 3b 40
       27.757421 27.476233
0000c0 d1 ea e4 0c c5 e9 3a 40 b1 88 61 87 31 01 3b 40
       26.913163 27.004662
0000d0 2d 98 f8 a3 a8 ff 3a 40 7e ac e0 b7 21 22 3b 40
       26.998667 27.133327
0000e0 b0 ff 3a 37 6d 26 3b 40 34 a2 b4 37 f8 fa 3a 40
       27.150104 26.98035
0000f0 f1 64 37 33 fa ed 3a 40 3a 5a d5 92 8e fe 3a 40
       26.929599 26.994363
000100 48 32 ab 77 b8 0d 3b 40 5a 47 55 13 44 55 3b 40
       27.053596 27.33307
000110 4f 02 9b 73 f0 14 3b 40 b7 7b b9 4f 8e 02 3b 40
       27.081794 27.009984
000120 7b 31 94 13 ed 62 3b 40 22 aa f0 67 78 9b 3b 40
       27.38643 27.607306
000130 7f fb 3a 70 ce b0 3b 40 64 3a 74 7a de 79 3b 40
       27.69065 27.476051
000140 b7 9c 4b 71 55 c5 3b 40 de 73 60 39 42 5a 3b 40
       27.770835 27.352573
000150 d0 25 1c 7a 8b 3f 3b 40 e8 4d 45 2a 8c 1d 3b 40
       27.248222 27.11542
000160 a5 4c 6a 68 03 38 3b 40 d9 40 ba d8 b4 12 3b 40
       27.218802 27.073072
000170 52 ef a9 9c f6 14 3b 40 dd 60 a8 c3 0a 13 3b 40
       27.081888 27.074383
000180 ad 2f 12 da 72 8e 3b 40 8d 0a 9c 6c 03 fb 3e 40
       27.55644 30.980521
000190 f4 53 1c 07 5e 79 3e 40 c2 a3 8d 23 d6 92 3f 40
       30.474091 31.57358
0001a0 2d 3f 70 95 27 70 3e 40 7d cf 48 84 46 00 3e 40
       30.438104 30.001076
0001b0 18 43 39 d1 ae 08 40 40 eb c7 26 f9 11 7b 3d 40
       32.067835 29.480743
0001c0 d2 c4 3b c0 93 16 3d 40 31 b1 f9 b8 36 40 3e 40
       29.088192 30.250835
0001d0 f4 8c 7d c9 c6 b7 3d 40 41 7d cb 9c 2e bf 3e 40
       29.717877 30.746805
0001e0 31 95 7e c2 d9 41 3f 40 2e 76 fb ac 32 d3 3f 40
       31.257229 31.824992
0001f0 7a fb 73 d1 90 d1 3c 40 b4 ad 66 9d f1 3d 3d 40
       28.818616 29.241968
000200 38 4e 0a f3 1e 63 3d 40 7c 9b fe ec 47 ee 3c 40
       29.387191 28.930785
000210 36 01 86 e5 cf cf 3d 40 c1 8d 94 2d 92 e2 3f 40
       29.811766 31.885043
000220 12 86 01 4b ae d2 3e 40 3b 6d 8d 08 c6 7d 3b 40
       30.822972 27.491303
000230 cb 67 79 1e dc a1 3b 40 34 a0 de 8c 9a 77 3b 40
       27.632265 27.467202
000240 f6 61 bd 51 2b c4 3b 40 7d e9 ed cf 45 83 3c 40
       27.766286 28.512784
000250 df 52 ce 17 7b 4f 3c 40 df 32 a7 cb 62 f2 3b 40
       28.310472 27.94682
000260 59 89 79 56 d2 2e 3c 40 1c ed b8 e1 77 3f 3c 40
       28.182897 28.247923
000270 77 4e b3 40 bb 53 41 40 bb d6 de a7 aa f8 40 40
       34.654152 33.942708
000280 ce fa 94 63 b2 be 40 40 e2 ca d9 3b a3 c5 40 40
       33.489819 33.544044
000290 3f ad a2 3f 34 91 40 40 93 55 11 6e 32 24 41 40
       33.134407 34.282789
0002a0 77 48 31 40 a2 39 40 40 54 ff 20 92 21 9f 42 40
       32.450264 37.243212
0002b0 ea cb d2 4e cd 17 42 40 bb 61 db a2 cc 18 42 40
       36.185953 36.193745
0002c0 f5 a2 76 bf 0a d6 42 40 06 2d 24 60 74 5b 42 40
       37.672203 36.714489
0002d0 cb f8 f7 19 17 c6 41 40 28 2a 1b d6 54 a0 42 40
       35.54758 37.252589
0002e0 c3 11 a4 52 ec ea 42 40 bd 1b 0b 0a 83 5e 41 40
       37.835337 34.738374
0002f0 ad f8 86 c2 67 8f 41 40 11 c4 79 38 81 47 42 40
       35.120354 36.558631
000300 95 f0 84 5e 7f fe 41 40 c1 a9 0f 24 ef 6c 42 40
       35.988262 36.851048
000310 17 45 0f 7c 0c 2e 41 40 29 20 ed 7f 80 ff 40 40
       34.359756 33.996109
000320 b3 ec 49 60 73 88 41 40 f9 65 30 46 24 b4 41 40
       35.066021 35.407357
000330 a6 0d 87 a5 81 a9 41 40 50 51 f5 2b 9d 0f 41 40
       35.324269 34.121984
000340 87 33 bf 9a 03 e8 42 40 8a 92 90 48 db 4c 42 40
       37.81261 36.600442
000350 f1 4b fd bc a9 76 40 40 e0 bc 38 f1 d5 26 40 40
       32.927055 32.303404
000360 13 d4 f0 2d ac 7d 40 40 66 10 1f d8 f1 ad 40 40
       32.981817 33.358943
000370 ef c8 58 6d fe 4b 44 40 2b 6a 30 0d c3 b1 44 40
       40.593702 41.388765
000380 aa 43 6e 86 1b d6 44 40 76 6e da 8c d3 78 44 40
       41.672715 40.943956
000390 fd f5 0a 0b ee 25 45 40 6e 51 66 83 4c 3a 45 40
       42.296327 42.45546
0003a0 6d e6 90 d4 42 2d 45 40 1c 23 d9 23 d4 0e 45 40
       42.353602 42.115849
0003b0 2a c4 23 f1 f2 30 45 40 65 19 e2 58 17 fb 44 40
       42.382414 41.96165
0003c0 d8 81 73 46 94 0a 45 40 33 c4 b1 2e 6e fd 44 40
       42.08265 41.979925
0003d0 92 21 c7 d6 33 2a 45 40 10 b2 2c 98 f8 db 44 40
       42.329707 41.718524
0003e0 af 93 fa b2 b4 07 45 40 e9 d7 d6 4f ff 3d 44 40
       42.060202 40.484354
0003f0 1c 78 b5 dc 99 9d 44 40 3e 23 11 1a c1 8c 44 40
       41.231258 41.099643
000400 f8 36 fd d9 8f 70 44 40 e5 60 36 01 86 cd 44 40
       40.87939 41.605652
000410 c9 91 ce c0 c8 df 45 40 1f 4c 8a 8f 4f 40 46 40
       43.748314 44.502428
000420 f1 0e f0 a4 85 29 46 40 ac c5 a7 00 18 85 46 40
       44.324391 45.039795
000430 58 ab 76 4d 48 89 46 40 82 8f c1 8a 53 3f 46 40
       45.072519 44.494737
000440 0c 93 a9 82 51 71 46 40 92 3f 18 78 ee bb 46 40
       44.8853 45.468215
000450 cf 49 ef 1b 5f d1 46 40 10 ad 15 6d 8e bd 46 40
       45.635715 45.480909
000460 2a 3a 92 cb 7f a6 46 40 e2 e8 2a dd 5d cf 46 40
       45.300775 45.620052
000470 bf 99 98 2e c4 c2 46 40 34 b9 18 03 eb 9e 46 40
       45.521612 45.241547
000480 6a 4e 5e 64 02 a0 46 40 68 03 b0 01 11 82 46 40
       45.250073 45.016144
000490 0d 39 b6 9e 21 a8 46 40 fa 5f ae 45 0b c0 46 40
       45.313526 45.500344
0004a0 f1 a1 44 4b 1e 71 46 40 57 40 a1 9e 3e e4 45 40
       44.883737 43.783161
0004b0 8e b1 13 5e 82 d5 45 40 f9 ba 0c ff e9 3e 46 40
       43.668041 44.491516
0004c0 7e 6e 68 ca 4e 2b 46 40 fb 74 3c 66 a0 d8 45 40
       44.338342 43.692395
0004d0 f9 bb 77 d4 98 ce 44 40 0d c3 47 c4 94 9e 44 40
       41.614039 41.238915
0004e0 7a e3 a4 30 ef 0f 45 40 d7 32 19 8e e7 c3 45 40
       42.124487 43.530504
0004f0 eb a9 d5 57 57 fd 45 40 94 6a 9f 8e c7 86 45 40
       43.979228 43.052965
000500 35 62 66 9f c7 42 45 40 de 3e ab cc 94 aa 43 40
       42.521717 39.332666
000510 d2 e1 21 8c 9f 1c 44 40 de 54 a4 c2 d8 76 43 40
       40.223619 38.92849
000520 f3 75 19 fe d3 4f 43 40 03 b1 6c e6 90 f2 42 40
       38.623657 37.895047
000530 00 3a cc 97 17 58 44 40 b1 fc f9 b6 60 13 44 40
       40.68822 40.151389
000540 78 5f 95 0b 95 79 43 40 c3 82 fb 01 0f de 43 40
       38.949861 39.734833
000550 55 87 dc 0c 37 54 43 40 73 81 cb 63 cd 26 43 40
       38.65793 38.303143
000560 59 f7 8f 85 e8 e6 42 40 32 1d 3a 3d ef 5e 44 40
       37.803971 40.741676
000570 d1 3f c1 c5 8a 46 44 40 37 df 88 ee 59 d1 43 40
       40.55111 39.635557
000580 3b c3 d4 96 3a 2e 44 40 13 b8 75 37 4f a3 44 40
       40.361163 41.275855
000590 53 7b 11 6d c7 d8 42 40 c4 d2 c0 8f 6a 64 43 40
       37.693586 38.784502
0005a0 d9 b5 bd dd 92 8e 45 40 98 17 60 1f 9d 7a 45 40
       43.113857 42.95792
0005b0 22 ab 5b 3d 27 35 45 40 c4 3e 01 14 23 27 45 40
       42.41526 42.305758
0005c0 b0 1f 62 83 85 89 45 40 00 74 98 2f 2f 12 45 40
       43.074387 42.142065
0005d0 29 ae 2a fb ae e0 44 40 38 4e 0a f3 1e 4b 45 40
       41.75534 42.586882
0005e0 4d 30 9c 6b 98 dd 44 40 65 e1 eb 6b 5d be 44 40
       41.731214 41.487226
0005f0 b4 91 eb a6 94 cb 44 40 c0 3c 64 ca 87 0c 42 40
       41.590474 36.097894
000600 ed d7 9d ee 3c 63 42 40 05 88 82 19 53 ce 41 40
       36.775297 35.611911
000610 f8 c6 10 00 1c 69 41 40 20 ed 7f 80 b5 4c 41 40
       34.821167 34.599289
000620 f0 51 7f bd c2 00 41 40 10 b3 97 6d a7 d3 40 40
       34.005943 33.653547
000630 e0 da 89 92 90 36 40 40 81 21 ab 5b 3d 79 40 40
       32.426287 32.947185
000640 ef 73 7c b4 38 71 40 40 03 5d fb 02 7a 1f 40 40
       32.884543 32.245911
000650 b1 db 67 95 99 ba 40 40 fb 24 77 d8 44 82 3f 40
       33.457812 31.508863
000660 c9 cb 9a 58 e0 37 3f 40 2e 73 ba 2c 26 56 41 40
       31.218267 34.67304
000670 3c 14 05 fa 44 10 41 40 d6 02 7b 4c a4 4e 41 40
       34.127105 34.614389
000680 26 fc 52 3f 6f be 40 40 4f 07 b2 9e 5a a1 42 40
       33.48777 37.260578
000690 85 95 0a 2a aa 76 42 40 76 17 28 29 b0 ea 41 40
       36.927068 35.833501
0006a0 ce 71 6e 13 ee 31 42 40 da a9 b9 dc 60 9a 42 40
       36.390078 37.206081
0006b0 a2 5f 5b 3f fd 4b 42 40 a2 ed 98 ba 2b a3 41 40
       36.593666 35.274772
0006c0 36 ce a6 23 80 cd 41 40 9b 03 04 73 f4 c8 3e 40
       35.605473 30.78498
0006d0 52 7d e7 17 25 f4 3f 40 db fc bf ea c8 85 3e 40
       31.953691 30.522597
0006e0 7e 52 ed d3 f1 d4 3d 40 47 92 20 5c 01 75 3c 40
       29.831815 28.457052
0006f0 67 7c 5f 5c aa fa 3b 40 87 c5 a8 6b ed 9d 3b 40
       27.979162 27.616904
000700 35 08 73 bb 97 0f 3c 40 bf 81 c9 8d 22 33 3c 40
       28.060909 28.199746
000710 14 e7 a8 a3 e3 a2 3c 40 99 64 e4 2c ec 29 3d 40
       28.636286 29.16376
000720 de c9 a7 c7 b6 b0 3c 40 88 64 c8 b1 f5 74 3c 40
       28.690289 28.456874
000730 43 03 b1 6c e6 e8 3b 40 4e f2 23 7e c5 2a 3c 40
       27.909766 28.167076
000740 92 5e d4 ee 57 b1 3b 40 03 43 56 b7 7a 7e 3b 40
       27.692748 27.49406
000750 e3 e0 d2 31 e7 e9 3d 40 3e 26 52 9a cd db 3e 40
       29.913684 30.858606
000760 1c 29 5b 24 ed ca 3e 40 d1 b1 83 4a 5c 43 3b 40
       30.792681 27.263127
000770 bf d7 10 1c 97 89 3b 40 81 96 ae 60 1b e1 3a 40
       27.537462 26.879324
000780 c0 b3 3d 7a c3 f9 3a 40 fb 22 a1 2d e7 ba 3a 40
       26.975639 26.73009
000790 8e 90 81 3c bb f0 3a 40 bb 5e 9a 22 c0 41 3b 40
       26.940357 27.256838
0007a0 72 6c 3d 43 38 e2 3a 40 cb 81 1e 6a db cc 3a 40
       26.883671 26.800223
0007b0 61 51 11 a7 93 f8 3a 40 68 20 96 cd 1c fe 3a 40
       26.971003 26.992627
0007c0 d8 b8 fe 5d 9f 29 3a 40 0f d4 29 8f 6e 54 3a 40
       26.162588 26.329812
0007d0 f2 06 98 f9 0e 1a 3a 40 1d c9 e5 3f a4 1f 3a 40
       26.101791 26.1236
0007e0 a7 94 d7 4a e8 3e 3a 40 6e f8 dd 74 cb 52 3a 40
       26.245732 26.323417
0007f0 ef 3a 1b f2 cf 88 3a 40 07 9a cf b9 db 71 3a 40
       26.534423 26.444759

vertex_normals (column-major) f8 [7988, 3]
000000 40 6d 54 a7 03 99 16 c0 2b 68 5a 62 65 54 17 c0
       -5.649428 -5.832418
000010 3a cc 97 17 60 7f 07 c0 74 b6 80 d0 7a a8 17 c0
       -2.937195 -5.914531
000020 24 d0 60 53 e7 21 16 c0 bf 9a 03 04 73 54 13 c0
       -5.533109 -4.83247
000030 b5 e0 45 5f 41 da 04 c0 d5 ec 81 56 60 e8 16 c0
       -2.60657 -5.72693
000040 90 11 50 e1 08 92 16 c0 eb 1b 98 dc 28 42 17 c0
       -5.642612 -5.814609
000050 28 2c f1 80 b2 79 17 c0 98 c3 ee 3b 86 b7 17 c0
       -5.868845 -5.929223
000060 de 58 50 18 94 f9 15 c0 c2 a3 8d 23 d6 32 16 c0
       -5.493729 -5.549645
000070 1e a6 7d 73 7f 65 15 c0 dc 7f 64 3a 74 8a 16 c0
       -5.349119 -5.635209
000080 4a 07 eb ff 1c 16 17 c0 dc 7f 64 3a 74 ba 07 c0
       -5.771595 -2.966042
000090 42 27 84 0e ba 24 0f c0 95 63 b2 b8 ff 28 02 c0
       -3.892933 -2.270019
0000a0 db 32 e0 2c 25 8b 11 c0 71 ae 61 86 c6 63 13 c0
       -4.385884 -4.847437
0000b0 d0 5f e8 11 a3 c7 07 c0 ac c7 7d ab 75 12 18 c0
       -2.972479 -6.018027
0000c0 08 3b c5 aa 41 f8 18 c0 a1 f8 31 e6 ae 15 19 c0
       -6.242438 -6.271175
0000d0 83 df 86 18 af f9 18 c0 be d8 7b f1 45 8b 18 c0
       -6.243832 -6.136009
0000e0 93 ac c3 d1 55 1a 18 c0 af 25 e4 83 9e fd 18 c0
       -6.025718 -6.247675
0000f0 10 b3 97 6d a7 0d 19 c0 c1 e4 46 91 b5 16 19 c0
       -6.263334 -6.272177
000100 4e 7a df f8 da f3 18 c0 da a9 b9 dc 60 c8 17 c0
       -6.23814 -5.945682
000110 e6 20 e8 68 55 cb 18 c0 71 55 d9 77 45 00 19 c0
       -6.198568 -6.250265
000120 b8 04 e0 9f 52 25 18 c0 2a 3b fd a0 2e c2 17 c0
       -6.036448 -5.939631
000130 c3 b6 45 99 0d e2 17 c0 35 f1 0e f0 a4 25 18 c0
       -5.970755 -6.036762
000140 40 a5 4a 94 bd c5 17 c0 3d 44 a3 3b 88 5d 18 c0
       -5.943106 -6.09134
000150 cd 8f bf b4 a8 8f 18 c0 dc 49 44 f8 17 91 18 c0
       -6.140292 -6.141693
000160 ce 37 a2 7b d6 85 18 c0 80 45 7e fd 10 cb 18 c0
       -6.130701 -6.198307
000170 44 51 a0 4f e4 69 18 c0 fd a4 da a7 e3 b1 07 c0
       -6.10341 -2.96186
000180 85 7b 65 de aa bb 16 c0 3e 59 31 5c 1d 00 0b c0
       -5.683269 -3.375056
000190 d1 b0 18 75 ad bd fd bf 42 5d a4 50 16 fe f6 bf
       -1.858808 -1.437033
0001a0 16 bd 53 01 f7 5c 0e c0 c9 e3 69 f9 81 1b 10 c0
       -3.795393 -4.026863
0001b0 0b 60 ca c0 01 ad 04 c0 29 98 31 05 6b 8c 11 c0
       -2.584476 -4.387127
0001c0 68 94 2e fd 4b 72 12 c0 94 6c 75 39 25 e0 0e c0
       -4.611618 -3.859446
0001d0 e6 75 c4 21 1b e8 10 c0 d6 6f 26 a6 0b 51 0c c0
       -4.226666 -3.539573
0001e0 7b fa 08 fc e1 47 09 c0 92 94 f4 30 b4 1a 06 c0
       -3.160099 -2.763039
0001f0 20 9c 4f 1d ab 24 13 c0 fe b9 68 c8 78 44 12 c0
       -4.785809 -4.566867
000200 14 3d f0 31 58 71 11 c0 d1 c9 52 eb fd f6 12 c0
       -4.360688 -4.741203
000210 43 8e ad 67 08 a7 10 c0 a0 c3 7c 79 01 16 06 c0
       -4.163118 -2.760745
000220 b7 28 b3 41 26 39 0c c0 e9 f0 10 c6 4f 63 17 c0
       -3.527905 -5.846984
000230 85 ec bc 8d cd 7e 16 c0 70 78 41 44 6a 4a 17 c0
       -5.623831 -5.822671
000240 d4 f2 03 57 79 52 16 c0 59 6e 69 35 24 1e 14 c0
       -5.580541 -5.029435
000250 78 d2 c2 65 15 b6 14 c0 01 dc 2c 5e 2c 9c 15 c0
       -5.177816 -5.402513
000260 83 f8 c0 8e ff 22 15 c0 ab 25 1d e5 60 e6 14 c0
       -5.284178 -5.224979
000270 04 c8 d0 b1 83 4a d7 bf 22 1b 48 17 9b 96 f2 bf
       -0.363923 -1.161769
000280 98 68 90 82 a7 90 e7 bf 73 f4 f8 bd 4d ff f8 bf
       -0.736408 -1.56233
000290 d5 b2 b5 be 48 e8 fc bf dc 49 44 f8 17 01 f0 bf
       -1.80671 -1.000267
0002a0 b6 6a d7 84 b4 66 02 c0 99 d6 a6 b1 bd 16 b0 3f
       -2.300149 0.062847
0002b0 1b 85 24 b3 7a 87 c9 bf 14 42 07 5d c2 a1 87 3f
       -0.199447 0.011539
0002c0 59 33 32 c8 5d 84 cb 3f b5 c0 1e 13 29 cd cc bf
       0.214977 -0.225011
0002d0 e1 d0 5b 3c bc 67 e0 bf d3 a3 a9 9e cc 3f d9 bf
       -0.512663 -0.394519
0002e0 63 97 a8 de 1a d8 d1 bf a7 b2 28 ec a2 e8 ec bf
       -0.278815 -0.903398
0002f0 61 71 38 f3 ab 39 df bf c5 71 e0 d5 72 67 ce 3f
       -0.487895 0.237532
000300 ce 16 10 5a 0f 5f a6 bf e6 eb 32 fc a7 1b 98 bf
       -0.043694 -0.023543
000310 2e 56 d4 60 1a 86 f0 bf 79 75 8e 01 d9 eb f3 bf
       -1.03274 -1.24508
000320 39 26 8b fb 8f 4c e6 bf 44 f9 82 16 12 30 d5 bf
       -0.696846 -0.331059
000330 04 20 ee ea 55 e4 e6 bf 75 56 0b ec 31 51 f3 bf
       -0.715373 -1.207323
000340 f1 d6 f9 b7 cb 7e da bf d5 79 54 fc df 11 da bf
       -0.413989 -0.407341
000350 ea d0 e9 79 37 16 ff bf 64 40 f6 7a f7 c7 02 c0
       -1.942924 -2.34764
000360 5d a7 91 96 ca db fe bf 5c 05 31 d0 b5 2f fa bf
       -1.92866 -1.636648
000370 ff b0 a5 47 53 9d 0b 40 5e bc 1f b7 5f 0e 14 40
       3.451819 5.014037
000380 e6 ce 4c 30 9c eb 15 40 6b 2c 61 6d 8c 3d 11 40
       5.480088 4.310106
000390 8f c5 36 a9 68 1c 18 40 61 df 4e 22 c2 4f 18 40
       6.027743 6.077889
0003a0 ec 4b 36 1e 6c 31 18 40 77 64 ac 36 ff 8f 17 40
       6.048264 5.890622
0003b0 2e ab b0 19 e0 52 18 40 70 9a 3e 3b e0 da 16 40
       6.080933 5.713746
0003c0 fe ed b2 5f 77 8a 17 40 82 91 97 35 b1 50 17 40
       5.885221 5.828801
0003d0 45 49 48 a4 6d 5c 18 40 55 4b 3a ca c1 5c 16 40
       6.090262 5.590583
0003e0 97 74 94 83 d9 84 17 40 25 03 40 15 37 4e 0c 40
       5.879736 3.538191
0003f0 32 e3 6d a5 d7 e6 13 40 a5 f3 e1 59 82 ac 12 40
       4.975432 4.668466
000400 0e 66 13 60 58 6e 11 40 5d c5 e2 37 85 e5 15 40
       4.357759 5.474141
000410 8c 15 35 98 86 21 0e 40 bd e5 ea c7 26 c9 13 40
       3.76637 4.946437
000420 25 92 e8 65 14 4b 13 40 83 16 12 30 ba 6c 16 40
       4.82332 5.606179
000430 8d 47 a9 84 27 d4 16 40 14 e7 a8 a3 e3 3a 14 40
       5.707182 5.057509
000440 2c 63 43 37 fb 43 16 40 da c8 75 53 ca ab 17 40
       5.566388 5.917764
000450 9f 00 8a 91 25 b3 18 40 04 cb 11 32 90 07 18 40
       6.174948 6.007386
000460 a9 83 bc 1e 4c aa 17 40 e8 9f e0 62 45 1d 18 40
       5.916306 6.028585
000470 2c 2c b8 1f f0 30 18 40 9c a6 cf 0e b8 4e 17 40
       6.047791 5.826874
000480 20 f0 c0 00 c2 57 17 40 33 89 7a c1 a7 a9 16 40
       5.835701 5.665679
000490 4e 7f f6 23 45 b4 17 40 5f 7a fb 73 d1 70 18 40
       5.926045 6.110174
0004a0 1f a1 66 48 15 65 16 40 df f9 45 09 fa 9b 10 40
       5.598714 4.152321
0004b0 32 58 71 aa b5 d0 0d 40 76 35 79 ca 6a 9a 14 40
       3.726909 5.150798
0004c0 e3 18 c9 1e a1 d6 13 40 98 e0 d4 07 92 77 0d 40
       4.959599 3.683384
0004d0 c6 e0 61 da 37 47 10 40 11 8a ad a0 69 09 0f 40
       4.069549 3.879596
0004e0 47 e3 50 bf 0b 6b 10 40 3a 96 77 d5 03 96 10 40
       4.104537 4.146499
0004f0 f6 46 ad 30 7d ef 10 40 2a fd 84 b3 5b eb 10 40
       4.233876 4.229842
000500 2f 8a 1e f8 18 0c 11 40 e6 3e 39 0a 10 05 09 40
       4.261814 3.127472
000510 24 99 d5 3b dc 2e 0c 40 6e 35 eb 8c ef 4b 07 40
       3.522881 2.912078
000520 da fe 95 95 26 65 f6 3f ad c1 fb aa 5c 08 03 40
       1.399695 2.379083
000530 2e 76 fb ac 32 93 0d 40 12 88 d7 f5 0b d6 0b 40
       3.696874 3.479515
000540 49 69 36 8f c3 80 09 40 9f 57 3c f5 48 83 0b 40
       3.187873 3.439104
000550 07 ee 40 9d f2 28 08 40 c6 89 af 76 14 c7 05 40
       3.019994 2.722207
000560 2c 0f d2 53 e4 d0 03 40 b7 43 c3 62 d4 95 0e 40
       2.476998 3.823159
000570 92 5a 28 99 9c ba 0d 40 53 eb fd 46 3b 4e 0a 40
       3.716119 3.288199
000580 ed 29 39 27 f6 10 0d 40 e0 30 d1 20 05 0f 0f 40
       3.633282 3.882334
000590 6c b2 46 3d 44 c3 02 40 8e 07 5b ec f6 f9 06 40
       2.345345 2.872053
0005a0 91 7e fb 3a 70 9e 11 40 11 8f c4 cb d3 29 11 40
       4.404725 4.290847
0005b0 bf 0f 07 09 51 ce 11 40 18 07 97 8e 39 df 10 40
       4.451481 4.217993
0005c0 c8 b6 0c 38 4b c9 10 40 78 0a b9 52 cf 42 10 40
       4.196576 4.065244
0005d0 c6 6b 5e d5 59 ed 0f 40 9e eb fb 70 90 a0 12 40
       3.990894 4.656801
0005e0 c0 42 e6 ca a0 6a 11 40 8a e3 c0 ab e5 ee 0f 40
       4.354129 3.991649
0005f0 a8 39 79 91 09 b8 10 40 79 94 4a 78 42 af f5 3f
       4.179724 1.355288
000600 1b 9d f3 53 1c 87 fb 3f b3 b2 7d c8 5b 2e f1 3f
       1.720486 1.073818
000610 ef 00 4f 5a b8 ac ca 3f 36 76 89 ea ad 81 c7 3f
       0.208396 0.183645
000620 53 e7 51 f1 7f 47 c2 bf 5b ee cc 04 c3 b9 e6 bf
       -0.142807 -0.710176
000630 03 07 b4 74 05 5b 00 c0 61 e3 fa 77 7d a6 f5 bf
       -2.044444 -1.353147
000640 59 be 2e c3 7f fa f5 bf ee 5d 83 be f4 96 00 c0
       -1.373657 -2.073709
000650 04 c6 fa 06 26 37 e7 bf 6c 5f 40 2f dc b9 07 c0
       -0.725482 -2.965752
000660 91 98 a0 86 6f e1 0b c0 3d d2 e0 b6 b6 f0 da 3f
       -3.485076 0.420942
000670 20 98 a3 c7 ef 6d c0 bf d6 a7 1c 93 c5 fd d0 3f
       -0.128355 0.265489
000680 75 78 08 e3 a7 f1 e9 bf 9e d1 56 25 91 5d 01 40
       -0.810749 2.170687
000690 9b 3c 65 35 5d 0f ff 3f 59 13 0b 7c 45 b7 f4 3f
       1.941251 1.294744
0006a0 ff b1 10 1d 02 47 fb 3f a5 2d ae f1 99 0c 00 40
       1.704836 2.006153
0006b0 2f f7 c9 51 80 68 fb 3f 07 3f 71 00 fd be e9 3f
       1.713013 0.804564
0006c0 73 82 36 39 7c d2 f0 3f 04 ca a6 5c e1 fd 0e c0
       1.051388 -3.873965
0006d0 4f 05 dc f3 fc 29 02 c0 10 22 19 72 6c 1d 11 c0
       -2.270502 -4.278734
0006e0 7d 5b b0 54 17 10 13 c0 d1 91 5c fe 43 7a 16 c0
       -4.765714 -5.6194
0006f0 94 4e 24 98 6a 36 17 c0 76 6f 45 62 82 4a 17 c0
       -5.803141 -5.822763
000700 a4 89 77 80 27 bd 16 c0 ae 4a 22 fb 20 2b 16 c0
       -5.684721 -5.542118
000710 74 ed 0b e8 85 fb 15 c0 69 8c d6 51 d5 24 14 c0
       -5.495628 -5.03597
000720 ef 75 52 5f 96 76 15 c0 0c 05 6c 07 23 56 15 c0
       -5.365808 -5.334118
000730 98 6c 3c d8 62 17 16 c0 60 cc 96 ac 8a 50 15 c0
       -5.522838 -5.328654
000740 28 2a 1b d6 54 d6 16 c0 3f 8d 7b f3 1b 96 16 c0
       -5.709308 -5.646591
000750 bd fe 24 3e 77 72 10 c0 86 04 8c 2e 6f 8e 06 c0
       -4.111783 -2.819548
000760 8c 68 3b a6 ee 8a 09 c0 e3 e2 a8 dc 44 1d 18 c0
       -3.192838 -6.028583
000770 a2 0e 2b dc f2 a1 17 c0 88 d7 f5 0b 76 d3 18 c0
       -5.908153 -6.206505
000780 c0 b2 d2 a4 14 74 18 c0 6d 8e 73 9b 70 9f 18 c0
       -6.11336 -6.155703
000790 b6 66 2b 2f f9 2f 18 c0 87 33 bf 9a 03 b4 17 c0
       -6.046849 -5.925795
0007a0 89 d3 49 b6 ba cc 17 c0 9b 8e 00 6e 16 cf 18 c0
       -5.949931 -6.202234
0007b0 82 1d ff 05 82 e0 18 c0 07 b3 09 30 2c 3f 18 c0
       -6.219246 -6.061692
0007c0 6d a8 18 e7 6f 72 18 c0 9e 5f 94 a0 bf 50 18 c0
       -6.111755 -6.078856
0007d0 61 ff 75 6e da 1c 18 c0 f0 4c 68 92 58 82 18 c0
       -6.028177 -6.127291
0007e0 72 6c 3d 43 38 56 18 c0 67 b5 c0 1e 13 99 18 c0
       -6.084199 -6.149487
0007f0 1e a9 be f3 8b b2 17 c0 3b 6d 8d 08 c6 91 18 c0
       -5.924362 -6.142357

labels f8 [7988]
000000 00 00 00 00 00 00 00 00 00 00 00 00 00 00 00 00
       0.0 0.0
000010 00 00 00 00 00 00 00 00 00 00 00 00 00 00 00 00
       0.0 0.0
000020 00 00 00 00 00 00 00 00 00 00 00 00 00 00 00 00
       0.0 0.0
000030 00 00 00 00 00 00 00 00 00 00 00 00 00 00 00 00
       0.0 0.0
000040 00 00 00 00 00 00 00 00 00 00 00 00 00 00 00 00
       0.0 0.0
000050 00 00 00 00 00 00 00 00 00 00 00 00 00 00 00 00
       0.0 0.0
000060 00 00 00 00 00 00 00 00 00 00 00 00 00 00 00 00
       0.0 0.0
000070 00 00 00 00 00 00 00 00 00 00 00 00 00 00 00 00
       0.0 0.0
000080 00 00 00 00 00 00 00 00 00 00 00 00 00 00 00 00
       0.0 0.0
000090 00 00 00 00 00 00 00 00 00 00 00 00 00 00 00 00
       0.0 0.0
0000a0 00 00 00 00 00 00 00 00 00 00 00 00 00 00 00 00
       0.0 0.0
0000b0 00 00 00 00 00 00 00 00 00 00 00 00 00 00 00 00
       0.0 0.0
0000c0 00 00 00 00 00 00 00 00 00 00 00 00 00 00 00 00
       0.0 0.0
0000d0 00 00 00 00 00 00 00 00 00 00 00 00 00 00 00 00
       0.0 0.0
0000e0 00 00 00 00 00 00 00 00 00 00 00 00 00 00 00 00
       0.0 0.0
0000f0 00 00 00 00 00 00 00 00 00 00 00 00 00 00 00 00
       0.0 0.0
000100 00 00 00 00 00 00 00 00 00 00 00 00 00 00 00 00
       0.0 0.0
000110 00 00 00 00 00 00 00 00 00 00 00 00 00 00 00 00
       0.0 0.0
000120 00 00 00 00 00 00 00 00 00 00 00 00 00 00 00 00
       0.0 0.0
000130 00 00 00 00 00 00 00 00 00 00 00 00 00 00 00 00
       0.0 0.0
000140 00 00 00 00 00 00 00 00 00 00 00 00 00 00 00 00
       0.0 0.0
000150 00 00 00 00 00 00 00 00 00 00 00 00 00 00 00 00
       0.0 0.0
000160 00 00 00 00 00 00 00 00 00 00 00 00 00 00 00 00
       0.0 0.0
000170 00 00 00 00 00 00 00 00 00 00 00 00 00 00 00 00
       0.0 0.0
000180 00 00 00 00 00 00 00 00 00 00 00 00 00 00 00 00
       0.0 0.0
000190 00 00 00 00 00 00 00 00 00 00 00 00 00 00 00 00
       0.0 0.0
0001a0 00 00 00 00 00 00 00 00 00 00 00 00 00 00 00 00
       0.0 0.0
0001b0 00 00 00 00 00 00 00 00 00 00 00 00 00 00 00 00
       0.0 0.0
0001c0 00 00 00 00 00 00 00 00 00 00 00 00 00 00 00 00
       0.0 0.0
0001d0 00 00 00 00 00 00 00 00 00 00 00 00 00 00 00 00
       0.0 0.0
0001e0 00 00 00 00 00 00 00 00 00 00 00 00 00 00 00 00
       0.0 0.0
0001f0 00 00 00 00 00 00 00 00 00 00 00 00 00 00 00 00
       0.0 0.0
000200 00 00 00 00 00 00 00 00 00 00 00 00 00 00 00 00
       0.0 0.0
000210 00 00 00 00 00 00 00 00 00 00 00 00 00 00 00 00
       0.0 0.0
000220 00 00 00 00 00 00 00 00 00 00 00 00 00 00 00 00
       0.0 0.0
000230 00 00 00 00 00 00 00 00 00 00 00 00 00 00 00 00
       0.0 0.0
000240 00 00 00 00 00 00 00 00 00 00 00 00 00 00 00 00
       0.0 0.0
000250 00 00 00 00 00 00 00 00 00 00 00 00 00 00 00 00
       0.0 0.0
000260 00 00 00 00 00 00 00 00 00 00 00 00 00 00 00 00
       0.0 0.0
000270 00 00 00 00 00 00 00 00 00 00 00 00 00 00 00 00
       0.0 0.0
000280 00 00 00 00 00 00 00 00 00 00 00 00 00 00 00 00
       0.0 0.0
000290 00 00 00 00 00 00 00 00 00 00 00 00 00 00 00 00
       0.0 0.0
0002a0 00 00 00 00 00 00 00 00 00 00 00 00 00 00 00 00
       0.0 0.0
0002b0 00 00 00 00 00 00 00 00 00 00 00 00 00 00 00 00
       0.0 0.0
0002c0 00 00 00 00 00 00 00 00 00 00 00 00 00 00 00 00
       0.0 0.0
0002d0 00 00 00 00 00 00 00 00 00 00 00 00 00 00 00 00
       0.0 0.0
0002e0 00 00 00 00 00 00 00 00 00 00 00 00 00 00 00 00
       0.0 0.0
0002f0 00 00 00 00 00 00 00 00 00 00 00 00 00 00 00 00
       0.0 0.0
000300 00 00 00 00 00 00 00 00 00 00 00 00 00 00 00 00
       0.0 0.0
000310 00 00 00 00 00 00 00 00 00 00 00 00 00 00 00 00
       0.0 0.0
000320 00 00 00 00 00 00 00 00 00 00 00 00 00 00 00 00
       0.0 0.0
000330 00 00 00 00 00 00 00 00 00 00 00 00 00 00 00 00
       0.0 0.0
000340 00 00 00 00 00 00 00 00 00 00 00 00 00 00 00 00
       0.0 0.0
000350 00 00 00 00 00 00 00 00 00 00 00 00 00 00 00 00
       0.0 0.0
000360 00 00 00 00 00 00 00 00 00 00 00 00 00 00 00 00
       0.0 0.0
000370 00 00 00 00 00 00 00 00 00 00 00 00 00 00 00 00
       0.0 0.0
000380 00 00 00 00 00 00 00 00 00 00 00 00 00 00 00 00
       0.0 0.0
000390 00 00 00 00 00 00 00 00 00 00 00 00 00 00 00 00
       0.0 0.0
0003a0 00 00 00 00 00 00 00 00 00 00 00 00 00 00 00 00
       0.0 0.0
0003b0 00 00 00 00 00 00 00 00 00 00 00 00 00 00 00 00
       0.0 0.0
0003c0 00 00 00 00 00 00 00 00 00 00 00 00 00 00 00 00
       0.0 0.0
0003d0 00 00 00 00 00 00 00 00 00 00 00 00 00 00 00 00
       0.0 0.0
0003e0 00 00 00 00 00 00 00 00 00 00 00 00 00 00 00 00
       0.0 0.0
0003f0 00 00 00 00 00 00 00 00 00 00 00 00 00 00 00 00
       0.0 0.0
000400 00 00 00 00 00 00 00 00 00 00 00 00 00 00 00 00
       0.0 0.0
000410 00 00 00 00 00 00 00 00 00 00 00 00 00 00 00 00
       0.0 0.0
000420 00 00 00 00 00 00 00 00 00 00 00 00 00 00 00 00
       0.0 0.0
000430 00 00 00 00 00 00 00 00 00 00 00 00 00 00 00 00
       0.0 0.0
000440 00 00 00 00 00 00 00 00 00 00 00 00 00 00 00 00
       0.0 0.0
000450 00 00 00 00 00 00 00 00 00 00 00 00 00 00 00 00
       0.0 0.0
000460 00 00 00 00 00 00 00 00 00 00 00 00 00 00 00 00
       0.0 0.0
000470 00 00 00 00 00 00 00 00 00 00 00 00 00 00 00 00
       0.0 0.0
000480 00 00 00 00 00 00 00 00 00 00 00 00 00 00 00 00
       0.0 0.0
000490 00 00 00 00 00 00 00 00 00 00 00 00 00 00 00 00
       0.0 0.0
0004a0 00 00 00 00 00 00 00 00 00 00 00 00 00 00 00 00
       0.0 0.0
0004b0 00 00 00 00 00 00 00 00 00 00 00 00 00 00 00 00
       0.0 0.0
0004c0 00 00 00 00 00 00 00 00 00 00 00 00 00 00 00 00
       0.0 0.0
0004d0 00 00 00 00 00 00 00 00 00 00 00 00 00 00 00 00
       0.0 0.0
0004e0 00 00 00 00 00 00 00 00 00 00 00 00 00 00 00 00
       0.0 0.0
0004f0 00 00 00 00 00 00 00 00 00 00 00 00 00 00 00 00
       0.0 0.0
000500 00 00 00 00 00 00 00 00 00 00 00 00 00 00 00 00
       0.0 0.0
000510 00 00 00 00 00 00 00 00 00 00 00 00 00 00 00 00
       0.0 0.0
000520 00 00 00 00 00 00 00 00 00 00 00 00 00 00 00 00
       0.0 0.0
000530 00 00 00 00 00 00 00 00 00 00 00 00 00 00 00 00
       0.0 0.0
000540 00 00 00 00 00 00 00 00 00 00 00 00 00 00 00 00
       0.0 0.0
000550 00 00 00 00 00 00 00 00 00 00 00 00 00 00 00 00
       0.0 0.0
000560 00 00 00 00 00 00 00 00 00 00 00 00 00 00 00 00
       0.0 0.0
000570 00 00 00 00 00 00 00 00 00 00 00 00 00 00 00 00
       0.0 0.0
000580 00 00 00 00 00 00 00 00 00 00 00 00 00 00 00 00
       0.0 0.0
000590 00 00 00 00 00 00 00 00 00 00 00 00 00 00 00 00
       0.0 0.0
0005a0 00 00 00 00 00 00 00 00 00 00 00 00 00 00 00 00
       0.0 0.0
0005b0 00 00 00 00 00 00 00 00 00 00 00 00 00 00 00 00
       0.0 0.0
0005c0 00 00 00 00 00 00 00 00 00 00 00 00 00 00 00 00
       0.0 0.0
0005d0 00 00 00 00 00 00 00 00 00 00 00 00 00 00 00 00
       0.0 0.0
0005e0 00 00 00 00 00 00 00 00 00 00 00 00 00 00 00 00
       0.0 0.0
0005f0 00 00 00 00 00 00 00 00 00 00 00 00 00 00 00 00
       0.0 0.0
000600 00 00 00 00 00 00 00 00 00 00 00 00 00 00 00 00
       0.0 0.0
000610 00 00 00 00 00 00 00 00 00 00 00 00 00 00 00 00
       0.0 0.0
000620 00 00 00 00 00 00 00 00 00 00 00 00 00 00 00 00
       0.0 0.0
000630 00 00 00 00 00 00 00 00 00 00 00 00 00 00 00 00
       0.0 0.0
000640 00 00 00 00 00 00 00 00 00 00 00 00 00 00 00 00
       0.0 0.0
000650 00 00 00 00 00 00 00 00 00 00 00 00 00 00 00 00
       0.0 0.0
000660 00 00 00 00 00 00 00 00 00 00 00 00 00 00 00 00
       0.0 0.0
000670 00 00 00 00 00 00 00 00 00 00 00 00 00 00 00 00
       0.0 0.0
000680 00 00 00 00 00 00 00 00 00 00 00 00 00 00 00 00
       0.0 0.0
000690 00 00 00 00 00 00 00 00 00 00 00 00 00 00 00 00
       0.0 0.0
0006a0 00 00 00 00 00 00 00 00 00 00 00 00 00 00 00 00
       0.0 0.0
0006b0 00 00 00 00 00 00 00 00 00 00 00 00 00 00 00 00
       0.0 0.0
0006c0 00 00 00 00 00 00 00 00 00 00 00 00 00 00 00 00
       0.0 0.0
0006d0 00 00 00 00 00 00 00 00 00 00 00 00 00 00 00 00
       0.0 0.0
0006e0 00 00 00 00 00 00 00 00 00 00 00 00 00 00 00 00
       0.0 0.0
0006f0 00 00 00 00 00 00 00 00 00 00 00 00 00 00 00 00
       0.0 0.0
000700 00 00 00 00 00 00 00 00 00 00 00 00 00 00 00 00
       0.0 0.0
000710 00 00 00 00 00 00 00 00 00 00 00 00 00 00 00 00
       0.0 0.0
000720 00 00 00 00 00 00 00 00 00 00 00 00 00 00 00 00
       0.0 0.0
000730 00 00 00 00 00 00 00 00 00 00 00 00 00 00 00 00
       0.0 0.0
000740 00 00 00 00 00 00 00 00 00 00 00 00 00 00 00 00
       0.0 0.0
000750 00 00 00 00 00 00 00 00 00 00 00 00 00 00 00 00
       0.0 0.0
000760 00 00 00 00 00 00 00 00 00 00 00 00 00 00 00 00
       0.0 0.0
000770 00 00 00 00 00 00 00 00 00 00 00 00 00 00 00 00
       0.0 0.0
000780 00 00 00 00 00 00 00 00 00 00 00 00 00 00 00 00
       0.0 0.0
000790 00 00 00 00 00 00 00 00 00 00 00 00 00 00 00 00
       0.0 0.0
0007a0 00 00 00 00 00 00 00 00 00 00 00 00 00 00 00 00
       0.0 0.0
0007b0 00 00 00 00 00 00 00 00 00 00 00 00 00 00 00 00
       0.0 0.0
0007c0 00 00 00 00 00 00 00 00 00 00 00 00 00 00 00 00
       0.0 0.0
0007d0 00 00 00 00 00 00 00 00 00 00 00 00 00 00 00 00
       0.0 0.0
0007e0 00 00 00 00 00 00 00 00 00 00 00 00 00 00 00 00
       0.0 0.0
0007f0 00 00 00 00 00 00 00 00 00 00 00 00 00 00 00 00
       0.0 0.0
