classification/data/Segmented_Models/model_91/model_93.npz (npz, 329454 bytes, 3 tensors)

vertices (column-major) f8 [2827, 3]
00000000: 61c1 fd80 0708 5cc0 1afb 928d 0708 5cc0
00000010: 6b7e fca5 4569 3e40 4f95 ef19 8914 3f40
00000020: 5b97 1aa1 9fcd 3e40 caa9 9d61 6a4f 3e40
00000030: f3e2 c457 3bb2 3f40 b2a1 9bfd 8104 4040
00000040: 0709 51be a0c9 4040 2a1a 6b7f 6765 4040
00000050: 0709 51be a0c9 4040 164e d2fc 3161 48c0
00000060: a229 3bfd a076 48c0 e999 5e62 2c73 48c0
00000070: f855 b950 f98f 2a40 c05b 2041 f143 2840
00000080: 1a31 b3cf 630c 2940 f855 b950 f98f 2a40
00000090: 0bb7 7c24 2549 3540 90a2 cedc 430e 3640
000000a0: 5e4c 33dd ebe4 3440 558a 1d8d 4323 4640
000000b0: 9d11 a5bd c159 4540 48e0 0f3f ffcb 4540
000000c0: eb53 8ec9 e236 2e40 643d b5fa ea02 2e40
000000d0: 1e16 6a4d f3ce 2d40 378c 82e0 f1c5 3640
000000e0: e8db 82a5 ba1c 3740 f110 c64f e336 2e40
000000f0: f110 c64f e336 2e40 8236 397c d23d 48c0
00000100: 9b20 ea3e 0051 2240 685e 0ebb efb8 2240
00000110: 685e 0ebb efb8 2240 0d34 9f73 b747 4740
00000120: d4f2 0357 79a8 4740 c382 fb01 0fd8 4640
00000130: ef39 b01c 2123 3440 3eea af57 58cc 3340
00000140: 999c da19 a62e 3340 0c3f 389f 3a2f 52c0
00000150: 7618 93fe 5e48 52c0 04aa 7f10 c992 52c0
00000160: e40f 069e 7b0e 53c0 b6f7 a92a 34a1 52c0
00000170: 70cf f3a7 8daa 3740 9f58 a7ca f784 2240
00000180: cc5d 4bc8 071d 2340 f52a 323a 2081 2340
00000190: e0f4 2ede 8fd0 54c0 e0f4 2ede 8fd0 54c0
000001a0: b801 9f1f 46c4 54c0 b801 9f1f 46c4 54c0
000001b0: 8560 55bd fc2a 55c0 064a 0a2c 80be 54c0
000001c0: e3e3 13b2 f30e 2440 fbe7 69c0 2081 2340
000001d0: a59e 05a1 bce7 3240 f3ca f5b6 994a 2540
000001e0: 59fb 3bdb a383 3240 59fb 3bdb a383 3240
000001f0: 4f22 c2bf 08ca 57c0 4f22 c2bf 08ca 57c0
00000200: 272f 3201 bfbd 57c0 4df8 a57e de10 48c0
00000210: f756 2426 a869 3240 72dc 291d ac4f 3240
00000220: 8e59 f624 b0b5 3240 ee7a 698a 0037 2fc0
00000230: e3a9 471a dc06 30c0 240e d940 bab8 30c0
00000240: 33c0 05d9 b2c4 2ec0 9b20 ea3e 0051 2240
00000250: 8257 cb9d 99dc 3740 b7b5 85e7 a50e 3840
00000260: d6e2 5300 8cc2 54c0 5322 895e 46d4 54c0
00000270: b81f f0c0 00e6 54c0 e7e2 6f7b 8246 57c0
00000280: a453 573e cb2f 57c0 a453 573e cbff 56c0
00000290: df51 6342 cce3 47c0 72dc 291d ac4f 3240
000002a0: 23c0 e95d bce7 3240 a989 3e1f 6511 55c0
000002b0: a356 98be d741 55c0 a356 98be d741 55c0
000002c0: 9dd4 97a5 9d42 3840 9dd4 97a5 9d42 3840
000002d0: 3a95 0c00 55e2 4040 3a95 0c00 55e2 4040
000002e0: f1d6 f9b7 cb90 4740 8ecb b8a9 81c4 4640
000002f0: 8aaf 7614 e778 4740 d906 ee40 9d94 49c0
00000300: 8e05 8541 9978 48c0 c05b 2041 f1c3 48c0
00000310: d906 ee40 9d94 49c0 f660 527c 7c10 4ac0
00000320: 4013 61c3 d313 2ec0 8c9f c6bd f905 2ec0
00000330: fe9c 82fc 6c66 4940 65ab cb29 01bf 4840
00000340: 42ed b776 a2ce 4840 f660 527c 7c10 4ac0
00000350: 0760 0322 c461 4ac0 0760 0322 c461 4ac0
00000360: 48de 3994 a128 55c0 1151 4cde 00e6 54c0
00000370: ea42 acfe 08b6 54c0 e7a9 0eb9 194f 55c0
00000380: dcd5 abc8 e8eb 54c0 76df 313c f69f 4640
00000390: 4f07 b29e 5a2b 4740 b0e6 00c1 1c51 4740
000003a0: d7df 1280 7f80 51c0 6de5 25ff 9352 51c0
000003b0: 272f 3201 bfb1 51c0 2843 554c a5b7 56c0
000003c0: 8885 5ad3 bc62 56c0 669f c728 cfa3 56c0
000003d0: 08aa 46af 06e3 51c0 8690 f3fe 3ffb 51c0
000003e0: 1e35 26c4 5c2e 4340 5e47 1cb2 8174 4240
000003f0: 9eec 6646 3f50 4240 dbf7 a8bf 5e00 51c0
00000400: 8178 5dbf 60f3 50c0 118c 834b c7f4 4440
00000410: 67f1 6261 8864 4540 a704 c424 5cfa 4540
00000420: 533d 997f f407 56c0 ada1 d45e 4419 56c0
00000430: 6571 ff91 e90d 56c0 8178 5dbf 60f3 50c0
00000440: 2217 9cc1 dff9 50c0 efc7 ed97 4f16 16c0
00000450: 2497 ff90 7e4b 17c0 c422 861d c6f4 18c0
00000460: 9f3b c1fe eb50 4340 fa45 09fa 0b5b 4240
00000470: 944b e317 5ead 3540 944b e317 5ead 3540
00000480: db6d 179a ebe4 3440 075f 984c 1527 57c0
00000490: 0536 e7e0 9978 57c0 1616 dc0f 7845 57c0
000004a0: f9ba 0cff e90c 51c0 d313 9678 40c9 1ac0
000004b0: a489 7780 272b 51c0 6c5b 94d9 2023 3440
000004c0: 8f8a ff3b a2c4 4140 ff58 880e 8195 4140
000004d0: 22ff cc20 3e38 55c0 22ff cc20 3e38 55c0
000004e0: 22ff cc20 3e38 55c0 abb3 5a60 8f75 3340
000004f0: 49f2 5cdf 879c 54c0 eb90 9be1 06a3 54c0
00000500: 49f2 5cdf 879c 54c0 18d2 e121 8cc2 54c0
00000510: 5d6d c5fe b2fb 54c0 5055 a181 58f3 53c0
00000520: f0a5 f0a0 d9ec 53c0 4f07 b29e 5a06 54c0
00000530: 541f 48de 39e6 59c0 d712 f241 cf05 5ac0
00000540: 4018 78ee 3d2e 5ac0 c767 b27f 9e29 55c0
00000550: 5131 cedf 84de 3540 5131 cedf 84de 3540
00000560: a471 a8df 85a9 54c0 419c 8713 9824 54c0
00000570: abb3 5a60 8f75 3340 6c5b 94d9 2023 3440
00000580: 5055 a181 58f3 53c0 4f07 b29e 5a06 54c0
00000590: 3ba7 59a0 dd12 54c0 1de4 f560 5236 54c0
000005a0: 0b08 ad87 2f14 5bc0 a489 7780 27b7 5ac0
000005b0: 289a 07b0 c8bc 5ac0 a471 a8df 85a9 54c0
000005c0: 5fb8 7361 a456 52c0 c4b5 dac3 5e38 52c0
000005d0: 0439 2861 a669 52c0 ada1 d45e 4419 56c0
000005e0: ada1 d45e 4419 56c0 ada1 d45e 4419 56c0
000005f0: 8cf6 7821 1d70 52c0 5322 895e 460c 56c0
00000600: 179c c1df 2ff3 55c0 355f 251f bbff 55c0
00000610: e545 26e0 d741 55c0 5fb8 7361 a426 52c0
00000620: 0324 9a40 11ba 55c0 8063 cf9e cbcf 55c0
00000630: 8d46 3eaf 78a9 58c0 4f74 5df8 c196 58c0
00000640: a989 3e1f 6501 59c0 f92d 3a59 6a7e 58c0
00000650: e40f 069e 7bde 58c0 1b63 27bc 0485 58c0
00000660: 272f 3201 bfbd 57c0 eb01 f390 29b5 57c0
00000670: f8c4 3a55 be22 58c0 9e26 33de 56a4 55c0
00000680: d7dd 3cd5 218b 3340 ddeb a4be 2c19 3740
00000690: 529a cde3 30c8 3540 2bfc 19de ac12 59c0
000006a0: 98df 6932 e3b4 58c0 cc46 e7fc 140d 4140
000006b0: 637f d93d 7938 4140 d848 1284 2bc6 4040
000006c0: cc46 e7fc 14ad 4040 d2c5 a695 42d0 1dc0
000006d0: e00f 3fff 3d7c 46c0 0b5d 8940 f591 46c0
000006e0: 3cda 3862 2d7c 46c0 7cd6 355a 0ea0 3840
000006f0: 8a58 c4b0 c344 3740 a9db d957 1ed8 3840
00000700: e5d4 ce30 b589 3740 cee2 c5c2 1087 4040
00000710: 9ab2 d30f ea0c 51c0 596d fe5f 7519 51c0
00000720: 2b35 7ba0 15bc 3a40 93c6 681d 5501 3b40
00000730: 6399 7e89 78d3 3a40 3baa 9a20 ea6c 5bc0
00000740: c77f 8120 402b 5bc0 cff5 7d38 4887 5bc0
00000750: 66a3 737e 8a6d 48c0 7d5a 457f 686c 48c0
00000760: 0f42 40be 846c 48c0 0709 51be a039 4240
00000770: 08c9 0226 708b 4140 f59e ca69 4f43 4140
00000780: 47e3 50bf 0bb3 4ac0 f279 c553 8f94 4ac0
00000790: 9338 2ba2 2608 4ac0 f0a5 f0a0 d93c 51c0
000007a0: d7df 1280 7f80 51c0 be67 2442 237a 4040
000007b0: d2c7 7c40 a0e9 4040 0fd2 53e4 1087 4040
000007c0: d848 1284 2bc6 4040 90c0 1f7e fe93 4040
000007d0: 55a3 5703 9452 51c0 3bc8 ebc1 a4f2 5bc0
000007e0: 3ee8 d9ac faac 5bc0 71ad f6b0 17a9 5bc0
000007f0: d578 e926 3104 5bc0 8620 0725 cc4a 5bc0
-112.125458 -112.125461 30.411219 31.080217 30.803217 30.310217 31.696218 32.035217
33.575218 32.792221 33.575218 -48.759338 -48.926788 -48.899792 13.281199 12.1327
12.524199 13.281199 21.285723 22.055723 20.894224 44.275499 42.701225 43.593727
15.107199 15.005699 14.9042 22.773222 23.112223 15.107203 15.107203 -48.482986
9.158205 9.361204 9.361204 46.560286 47.316203 45.687958 20.137224 19.798223
19.182222 -72.737953 -73.130798 -74.293522 -76.226295 -74.518809 23.666224 9.259703
9.5567 9.752199 -83.258781 -83.258781 -83.06678 -83.06678 -84.671676 -82.976573
10.029203 9.752203 18.905222 10.645704 18.514219 18.514219 -95.156784 -95.156784
-94.964783 -48.13179 18.412722 18.31122 18.709719 -15.607426 -16.026796 -16.721592
-15.384177 9.158205 23.861719 24.057219 -83.039795 -83.316795 -83.593796 -93.101714
-92.74678 -91.99678 -47.779671 18.31122 18.905218 -84.271797 -85.028793 -85.028793
24.260218 24.260218 33.768219 33.768219 47.131217 45.535207 46.944552 -51.161049
-48.942177 -49.5308 -51.161049 -52.128799 -15.038725 -15.011671 50.800201 49.492223
49.614333 -52.128799 -52.763798 -52.763798 -84.634862 -83.593803 -82.844299 -85.235945
-83.686083 45.249702 46.338703 46.63369 -70.007782 -69.290283 -70.777283 -90.869464
-89.542775 -90.559519 -71.547283 -71.925781 38.362206 36.910208 36.626931 -68.005783
-67.80278 41.912332 42.785412 43.955937 -88.124298 -88.394798 -88.217381 -67.80278
-67.904282 -5.521788 -5.823725 -6.239037 38.632202 36.711303 21.677217 21.677217
20.89422 -92.610675 -93.884392 -93.085453 -68.201782 -6.696535 -68.674286 20.13722
35.536201 35.168001 -84.878792 -84.878792 -84.878792 19.459219 -82.445793 -82.547295
-82.445793 -83.039803 -83.9328 -79.802277 -79.700783 -80.099281 -103.597282 -104.090775
-104.72253 -84.650299 21.869215 21.869215 -82.648796 -80.571782 19.459219 20.13722
-79.802277 -80.099281 -80.294777 -80.848778 -108.315401 -106.861786 -106.949749 -82.648796
-73.353783 -72.880784 -73.65078 -88.394798 -88.394798 -88.394798 -73.751778 -88.191795
-87.799797 -87.995796 -85.028801 -72.603783 -86.907303 -87.246803 -98.647991 -98.355589
-100.021797 -97.975241 -99.476295 -98.078414 -94.964783 -94.830662 -96.542867 -86.567802
19.543485 23.098339 21.781996 -100.291801 -98.826367 34.102203 34.4412 33.548203
33.352203 -7.453379 -44.970642 -45.140297 -44.970135 24.625219 23.268611 24.844213
23.537921 33.055199 -68.201786 -68.397789 26.734705 27.005205 26.826058 -109.70179
-108.675789 -110.113783 -48.855789 -48.846939 -48.847801 36.450218 35.08936 34.525861
-53.398796 -53.160624 -52.063679 -68.950783 -70.007782 32.954201 33.825203 33.055203
33.548203 33.156204 -69.290284 -111.791306 -110.7028 -110.642071 -108.0655 -109.16871

vertex_normals (column-major) f8 [2827, 3]
00000000: 145e 8253 1fe8 08c0 69c3 6169 e0e7 08c0
00000010: 0249 d8b7 93c8 06c0 b401 d880 0871 01c0
00000020: 0f09 dffb 1b74 03c0 e31c 7574 5c0d 08c0
00000030: 6ef8 dd74 cb0e f9bf 3868 af3e 1e3a f2bf
00000040: 14e7 a8a3 e3ea f8bf 75af 93fa b234 e0bf
00000050: 2d5a 80b6 d56c fbbf 4ed1 915c fe83 0340
00000060: 6c98 a1f1 4450 0740 15ff 7744 854a 0840
00000070: 9e99 6038 d770 f13f dbdf d91e bde1 bebf
00000080: 302c 7fbe 2d58 d23f 9c33 a2b4 3778 f43f
00000090: 4209 336d ffca be3f 0e6b 2a8b c2ae e93f
000000a0: 9489 5b05 31d0 d8bf f168 e388 b5f8 d43e
000000b0: 718e 3a3a ae26 03c0 be30 992a 18d5 f8bf
000000c0: d2df 4be1 41b3 0840 7e37 ddb2 43fc 0740
000000d0: 0741 47ab 5a92 0640 703e 75ac 52fa f63f
000000e0: 20b3 b3e8 9dca fd3f 9945 28b6 8206 0940
000000f0: fc50 69c4 ccfe 0840 32af 230e d900 f83f
00000100: ea24 5b5d 4ea9 08c0 9d2c b5de 6f94 06c0
00000110: ce37 a27b d635 07c0 f168 e388 b5f8 d43e
00000120: 8ded b5a0 f7c6 d03e f168 e388 b5f8 d43e
00000130: 4128 efe3 680e f3bf 3596 b036 c60e f9bf
00000140: 5723 bbd2 3272 01c0 f168 e388 b5f8 d4be
00000150: 8e57 207a 52e6 0040 f168 e388 b5f8 d4be
00000160: b3cd 8de9 09eb 08c0 f168 e388 b5f8 d4be
00000170: c1e4 4691 b526 0340 e319 34f4 4ff0 07c0
00000180: 3563 d174 76d2 05c0 57ed 9a90 d698 03c0
00000190: ae83 83bd 8981 1340 4fe7 8a52 4230 fc3f
000001a0: 33c5 1c04 1d6d fb3f 1ade acc1 fbea f83f
000001b0: f168 e388 b5f8 d4be 8ded b5a0 f7c6 d0be
000001c0: cf82 50de c771 01c0 6f2f 698c d611 03c0
000001d0: 74b2 d47a bf11 03c0 d3db 9f8b 860c f9bf
000001e0: 9319 6f2b bd36 07c0 7aa6 9718 cb94 06c0
000001f0: d5e8 d500 a581 1340 8db4 54de 8e30 fc3f
00000200: 19c6 dd20 5aeb f83f 6b49 4739 98cd e53f
00000210: dd0a 6135 96f0 07c0 7b2d e8bd 31a4 08c0
00000220: dfc3 25c7 9dd2 05c0 0e16 4ed2 fc71 f3bf
00000230: 965e 9b8d 9598 d9bf 419f c893 a46b aebf
00000240: f585 90f3 febf fcbf e8fa 3e1c 24a4 08c0
00000250: 31d1 2005 4f81 0540 103b 53e8 bc06 0740
00000260: 2409 c215 5028 0440 5017 2994 858f 0140
00000270: ef90 6280 4413 fc3f 8ded b5a0 f7c6 d0be
00000280: 72fe 2614 22a0 ff3f 3e5a 9c31 cc69 0540
00000290: 73f1 b73d 4162 c13f fbad 9d28 09a9 08c0
000002a0: 5111 a793 6c35 04c0 ab93 3314 777c f43f
000002b0: 4f3c 670b 086d ff3f 6fba 6587 f8e7 0040
000002c0: 6902 452c 6298 0840 5a9c 31cc 095a 0840
000002d0: eab4 6e83 da2f fcbf 25ae 635c 7181 13c0
000002e0: f168 e388 b5f8 d43e f168 e388 b5f8 d43e
000002f0: f168 e388 b5f8 d43e 861b f0f9 6104 f9bf
00000300: 4d2d 5beb 8b84 d0bf 0394 861a 85a4 e1bf
00000310: 471c b281 74b1 f9bf 7041 b62c 5f57 04c0
00000320: 66bb 421f 2c43 05c0 5d6a 847e a65e 06c0
00000330: 55a0 1683 87e9 0840 8ded b5a0 f7c6 d03e
00000340: f168 e388 b5f8 d43e 8cf2 cccb 6157 04c0
00000350: 8082 8b15 3538 07c0 9676 6a2e 3738 07c0
00000360: f168 e388 b5f8 d4be fe0d daab 8fc7 fd3f
00000370: e162 450d a681 0540 8ded b5a0 f7c6 d0be
00000380: 8ded b5a0 f7c6 d0be 97ca db11 4e2b 05c0
00000390: 94f6 065f 984c fabf 54e4 1071 732a d93e
000003a0: 3e79 58a8 354d e93f 8cf8 4ecc 7a71 f83f
000003b0: df31 3cf6 b358 ba3f f168 e388 b5f8 d4be
000003c0: f168 e388 b5f8 d4be f168 e388 b5f8 d4be
000003d0: c233 a149 62c9 e5bf 63d5 20cc ed9e f2bf
000003e0: 43c9 e4d4 ce30 fc3f 8ded b5a0 f7c6 d03e
000003f0: 54e4 1071 732a c93e 3db7 d095 0834 0740
00000400: 6555 849b 8c6a 0840 f168 e388 b5f8 d43e
00000410: 54e4 1071 732a d93e 54e4 1071 732a d93e
00000420: 3198 bf42 e6ea 08c0 cdb0 51d6 6f06 09c0
00000430: 3c12 2f4f e7ea 18c0 ff7a 8505 f7a3 0840
00000440: 6745 d444 9f8f 0740 43e3 8920 ce43 f43f
00000450: eacc 3d24 7c2f 0440 44fd 2e6c cd56 fd3f
00000460: 59fd 1186 01eb 0840 f168 e388 b5f8 d43e
00000470: d07e a488 0ceb f8bf d8f4 a0a0 146d fbbf
00000480: e2ae 5e45 4607 dabf f168 e388 b5f8 d4be
00000490: 54e4 1071 732a c9be f168 e388 b5f8 d4be
000004a0: 9c35 785f 952b 0540 5915 e126 a3ca f13f
000004b0: 84a0 a355 2d49 0140 c24d 4695 619c f0bf
000004c0: 618a 7269 fc82 00c0 f168 e388 b5f8 d43e
000004d0: 698d 4127 84de 1140 58e1 968f a4a4 f53f
000004e0: 425b cea5 b8ea 0840 9e07 7767 ed76 ffbf
000004f0: f015 dd7a 4dcf 0840 f9c0 8eff 0201 0840
00000500: d6c7 43df dd6a 0840 3e5d ddb1 d826 0340
00000510: 79e6 e5b0 fb8e f83f 0b7d b08c 0d9d 0740
00000520: cfbc 1c76 df71 0840 da8e a9bb b22b 0540
00000530: 62a3 acdf 4c0c 0840 2c2d 23f5 9e2a 0440
00000540: 8ded b5a0 f7c6 d0be e8f9 d346 753a ea3f
00000550: e99c 9fe2 3830 fcbf a8c6 4b37 8981 13c0
00000560: a04f e449 d235 0740 63f0 30ed 9bfb 0140
00000570: 71ae 6186 c653 febf 876b b587 bd10 f3bf
00000580: 3813 d385 58fd 0740 1381 ea1f 44d2 0540
00000590: 4f06 47c9 ab33 0440 a261 31ea 5a7b ff3f
000005a0: f168 e388 b5f8 d4be f304 c24e b1ea f83f
000005b0: 54e4 1071 732a d9be c26d 6de1 79c9 0640
000005c0: 452d cdad 1076 05c0 19a9 f754 4e1b 02c0
000005d0: 99d9 e731 ca73 07c0 b85b 9203 7675 08c0
000005e0: f5db d781 7306 09c0 e25a ed61 2fb4 08c0
000005f0: 1399 b9c0 e551 08c0 9221 c7d6 3304 07c0
00000600: 0ce8 853b 1726 03c0 9198 a086 6f81 05c0
00000610: 19c5 724b aba1 e03f b1dd 3d40 f725 febf
00000620: 4e9c dcef 50d4 f8bf 645d dc46 0378 ffbf
00000630: 54e4 1071 732a d9be 54e4 1071 732a d9be
00000640: 5340 daff 00eb 08c0 8ded b5a0 f7c6 d0be
00000650: ca87 a06a f4ea 08c0 f168 e388 b5f8 d4be
00000660: 9e06 0c92 3e6d fb3f 8ded b5a0 f7c6 d0be
00000670: f168 e388 b5f8 d4be 49bc 3c9d 2b0a f3bf
00000680: f168 e388 b5f8 d43e f168 e388 b5f8 d43e
00000690: f168 e388 b5f8 d43e c328 081e dffe 08c0
000006a0: f168 e388 b5f8 d4be e083 d72e 6d78 ffbf
000006b0: 6478 ec67 b1d4 f8bf 4c17 62f5 4798 03c0
000006c0: 68e6 c935 05d2 05c0 6c43 c538 7f13 da3f
000006d0: f10d 85cf d641 f33f 58e4 d70f b1c1 ca3f
000006e0: f73e 5585 06a2 f33f 6fb7 2407 ecea 0840
000006f0: 54e4 1071 732a d93e 7efe 7bf0 daa5 f53f
00000700: 54e4 1071 732a d93e e4a3 c519 c3fc 07c0
00000710: 4dbc 033c 6981 0540 8e3f 51d9 b026 0340
00000720: 2bdb 87bc e5ea 0840 c7f3 1950 6f06 0940
00000730: 3c12 2f4f e7ea 1840 8ded b5a0 f7c6 d0be
00000740: e772 83a1 0eeb 0840 8ded b5a0 f7c6 d0be
00000750: 3fad a23f 34f3 0640 4be5 ed08 a705 0240
00000760: e57a db4c 85b8 0240 86e5 cfb7 05eb 0840
00000770: f168 e388 b5f8 d43e 8ded b5a0 f7c6 d03e
00000780: cb2d ad86 c47d fabf f168 e388 b5f8 d43e
00000790: 8ded b5a0 f7c6 d03e 8062 64c9 1ccb fd3f
000007a0: 177f db13 2436 ea3f 0490 dac4 c99d 08c0
000007b0: fe7b f0da a58d 01c0 77db 85e6 3a0d 08c0
000007c0: 6132 5530 2a29 04c0 0e67 7e35 07c8 06c0
000007d0: 88f7 1c58 8e90 f83f cec2 9e76 f88b 05c0
000007e0: fcc2 2b49 9e6b f8bf 8ded b5a0 f7c6 d0be
000007f0: f168 e388 b5f8 d4be 8ded b5a0 f7c6 d0be
-3.113341 -3.113221 -2.847938 -2.180192 -2.431694 -3.006524 -1.566112 -1.139189
-1.557346 -0.506433 -1.714071 2.43945 2.914194 3.036387 1.090049 -0.120632
0.286632 1.27935 0.120285 0.802583 -0.387707 5e-06 -2.393887 -1.552025
3.087528 2.998176 2.821462 1.436114 1.861967 3.128179 3.124414 1.500207
-3.082669 -2.822479 -2.901288 5e-06 4e-06 5e-06 -1.191018 -1.566107
-2.180761 -5e-06 2.112462 -5e-06 -3.114765 -5e-06 2.393901 -2.99234
-2.727765 -2.449628 4.876502 1.761782 1.714139 1.557369 -5e-06 -4e-06
-2.180557 -2.38371 -2.383666 -1.565558 -2.901728 -2.822653 4.876606 1.761855
1.557459 0.681347 -2.992474 -3.080173 -2.72784 -1.215329 -0.399938 -0.059415
-1.796874 -3.080147 2.688139 2.87829 2.519684 2.195079 1.754704 -4e-06
1.976595 2.676659 0.135811 -3.082537 -2.526086 1.280387 1.964119 2.113267
3.074406 3.043964 -1.761683 -4.876409 5e-06 5e-06 5e-06 -1.56357
-0.25809 -0.551333 -1.605824 -2.542662 -2.657799 -2.796216 3.114028 4e-06
5e-06 -2.542667 -2.902445 -2.902449 -5e-06 1.861221 2.688305 -4e-06
-4e-06 -2.646145 -1.6437 6e-06 0.790675 1.527705 0.102916 -5e-06
-5e-06 -5e-06 -0.680833 -1.163801 1.761916 4e-06 3e-06 2.900407
3.052026 5e-06 6e-06 6e-06 -3.114697 -3.128143 -6.229398 3.080061
2.945128 1.266554 2.523186 1.833692 3.114749 5e-06 -1.557385 -1.714131
-0.406694 -5e-06 -3e-06 -5e-06 2.646281 1.111972 2.160731 -1.038179
-2.063958 5e-06 4.467301 1.352696 3.11461 -1.966535 3.101222 3.000494
3.052181 2.393968 1.534908 2.951686 3.055602 2.646337 3.006006 2.520811
-4e-06 0.819636 -1.761773 -4.8765 2.90128 2.247856 -1.895453 -1.191587
2.998704 2.727669 2.52523 1.967616 -5e-06 1.557298 -6e-06 2.848377
-2.682649 -2.263333 -2.931538 -3.057354 -3.12815 -3.087981 -3.039989 -2.877052
-2.393599 -2.688201 0.519735 -1.884269 -1.551835 -1.9668 -6e-06 -6e-06
-3.114748 -4e-06 -3.114724 -5e-06 1.714171 -4e-06 -5e-06 -1.189983
5e-06 5e-06 5e-06 -3.124449 -5e-06 -1.966901 -1.551927 -2.449356
-2.727549 0.40744 1.203574 0.209036 1.227057 3.114708 6e-06 1.352992
6e-06 -2.998419 2.688189 2.393892 3.114696 3.128142 6.229398 -4e-06
3.114774 -4e-06 2.868752 2.25276 2.340098 3.114757 5e-06 4e-06
-1.655705 5e-06 4e-06 1.862088 0.819109 -3.077045 -2.194164 -3.00646
-2.5201 -2.84767 1.535292 -2.693345 -1.526274 -4e-06 -5e-06 -4e-06

labels f8 [2827]
00000000: 0000 0000 0000 0000 0000 0000 0000 0000
00000010: 0000 0000 0000 0000 0000 0000 0000 0000
00000020: 0000 0000 0000 0000 0000 0000 0000 0000
00000030: 0000 0000 0000 0000 0000 0000 0000 0000
00000040: 0000 0000 0000 0000 0000 0000 0000 0000
00000050: 0000 0000 0000 0000 0000 0000 0000 0000
00000060: 0000 0000 0000 0000 0000 0000 0000 0000
00000070: 0000 0000 0000 0000 0000 0000 0000 0000
00000080: 0000 0000 0000 0000 0000 0000 0000 0000
00000090: 0000 0000 0000 0000 0000 0000 0000 0000
000000a0: 0000 0000 0000 0000 0000 0000 0000 0000
000000b0: 0000 0000 0000 0000 0000 0000 0000 0000
000000c0: 0000 0000 0000 0000 0000 0000 0000 0000
000000d0: 0000 0000 0000 0000 0000 0000 0000 0000
000000e0: 0000 0000 0000 0000 0000 0000 0000 0000
000000f0: 0000 0000 0000 0000 0000 0000 0000 0000
00000100: 0000 0000 0000 0000 0000 0000 0000 0000
00000110: 0000 0000 0000 0000 0000 0000 0000 0000
00000120: 0000 0000 0000 0000 0000 0000 0000 0000
00000130: 0000 0000 0000 0000 0000 0000 0000 0000
00000140: 0000 0000 0000 0000 0000 0000 0000 0000
00000150: 0000 0000 0000 0000 0000 0000 0000 0000
00000160: 0000 0000 0000 0000 0000 0000 0000 0000
00000170: 0000 0000 0000 0000 0000 0000 0000 0000
00000180: 0000 0000 0000 0000 0000 0000 0000 0000
00000190: 0000 0000 0000 0000 0000 0000 0000 0000
000001a0: 0000 0000 0000 0000 0000 0000 0000 0000
000001b0: 0000 0000 0000 0000 0000 0000 0000 0000
000001c0: 0000 0000 0000 0000 0000 0000 0000 0000
000001d0: 0000 0000 0000 0000 0000 0000 0000 0000
000001e0: 0000 0000 0000 0000 0000 0000 0000 0000
000001f0: 0000 0000 0000 0000 0000 0000 0000 0000
00000200: 0000 0000 0000 0000 0000 0000 0000 0000
00000210: 0000 0000 0000 0000 0000 0000 0000 0000
00000220: 0000 0000 0000 0000 0000 0000 0000 0000
00000230: 0000 0000 0000 0000 0000 0000 0000 0000
00000240: 0000 0000 0000 0000 0000 0000 0000 0000
00000250: 0000 0000 0000 0000 0000 0000 0000 0000
00000260: 0000 0000 0000 0000 0000 0000 0000 0000
00000270: 0000 0000 0000 0000 0000 0000 0000 0000
00000280: 0000 0000 0000 0000 0000 0000 0000 0000
00000290: 0000 0000 0000 0000 0000 0000 0000 0000
000002a0: 0000 0000 0000 0000 0000 0000 0000 0000
000002b0: 0000 0000 0000 0000 0000 0000 0000 0000
000002c0: 0000 0000 0000 0000 0000 0000 0000 0000
000002d0: 0000 0000 0000 0000 0000 0000 0000 0000
000002e0: 0000 0000 0000 0000 0000 0000 0000 0000
000002f0: 0000 0000 0000 0000 0000 0000 0000 0000
00000300: 0000 0000 0000 0000 0000 0000 0000 0000
00000310: 0000 0000 0000 0000 0000 0000 0000 0000
00000320: 0000 0000 0000 0000 0000 0000 0000 0000
00000330: 0000 0000 0000 0000 0000 0000 0000 0000
00000340: 0000 0000 0000 0000 0000 0000 0000 0000
00000350: 0000 0000 0000 0000 0000 0000 0000 0000
00000360: 0000 0000 0000 0000 0000 0000 0000 0000
00000370: 0000 0000 0000 0000 0000 0000 0000 0000
00000380: 0000 0000 0000 0000 0000 0000 0000 0000
00000390: 0000 0000 0000 0000 0000 0000 0000 0000
000003a0: 0000 0000 0000 0000 0000 0000 0000 0000
000003b0: 0000 0000 0000 0000 0000 0000 0000 0000
000003c0: 0000 0000 0000 0000 0000 0000 0000 0000
000003d0: 0000 0000 0000 0000 0000 0000 0000 0000
000003e0: 0000 0000 0000 0000 0000 0000 0000 0000
000003f0: 0000 0000 0000 0000 0000 0000 0000 0000
00000400: 0000 0000 0000 0000 0000 0000 0000 0000
00000410: 0000 0000 0000 0000 0000 0000 0000 0000
00000420: 0000 0000 0000 0000 0000 0000 0000 0000
00000430: 0000 0000 0000 0000 0000 0000 0000 0000
00000440: 0000 0000 0000 0000 0000 0000 0000 0000
00000450: 0000 0000 0000 0000 0000 0000 0000 0000
00000460: 0000 0000 0000 0000 0000 0000 0000 0000
00000470: 0000 0000 0000 0000 0000 0000 0000 0000
00000480: 0000 0000 0000 0000 0000 0000 0000 0000
00000490: 0000 0000 0000 0000 0000 0000 0000 0000
000004a0: 0000 0000 0000 0000 0000 0000 0000 0000
000004b0: 0000 0000 0000 0000 0000 0000 0000 0000
000004c0: 0000 0000 0000 0000 0000 0000 0000 0000
000004d0: 0000 0000 0000 0000 0000 0000 0000 0000
000004e0: 0000 0000 0000 0000 0000 0000 0000 0000
000004f0: 0000 0000 0000 0000 0000 0000 0000 0000
00000500: 0000 0000 0000 0000 0000 0000 0000 0000
00000510: 0000 0000 0000 0000 0000 0000 0000 0000
00000520: 0000 0000 0000 0000 0000 0000 0000 0000
00000530: 0000 0000 0000 0000 0000 0000 0000 0000
00000540: 0000 0000 0000 0000 0000 0000 0000 0000
00000550: 0000 0000 0000 0000 0000 0000 0000 0000
00000560: 0000 0000 0000 0000 0000 0000 0000 0000
00000570: 0000 0000 0000 0000 0000 0000 0000 0000
00000580: 0000 0000 0000 0000 0000 0000 0000 0000
00000590: 0000 0000 0000 0000 0000 0000 0000 0000
000005a0: 0000 0000 0000 0000 0000 0000 0000 0000
000005b0: 0000 0000 0000 0000 0000 0000 0000 0000
000005c0: 0000 0000 0000 0000 0000 0000 0000 0000
000005d0: 0000 0000 0000 0000 0000 0000 0000 0000
000005e0: 0000 0000 0000 0000 0000 0000 0000 0000
000005f0: 0000 0000 0000 0000 0000 0000 0000 0000
00000600: 0000 0000 0000 0000 0000 0000 0000 0000
00000610: 0000 0000 0000 0000 0000 0000 0000 0000
00000620: 0000 0000 0000 0000 0000 0000 0000 0000
00000630: 0000 0000 0000 0000 0000 0000 0000 0000
00000640: 0000 0000 0000 0000 0000 0000 0000 0000
00000650: 0000 0000 0000 0000 0000 0000 0000 0000
00000660: 0000 0000 0000 0000 0000 0000 0000 0000
00000670: 0000 0000 0000 0000 0000 0000 0000 0000
00000680: 0000 0000 0000 0000 0000 0000 0000 0000
00000690: 0000 0000 0000 0000 0000 0000 0000 0000
000006a0: 0000 0000 0000 0000 0000 0000 0000 0000
000006b0: 0000 0000 0000 0000 0000 0000 0000 0000
000006c0: 0000 0000 0000 0000 0000 0000 0000 0000
000006d0: 0000 0000 0000 0000 0000 0000 0000 0000
000006e0: 0000 0000 0000 0000 0000 0000 0000 0000
000006f0: 0000 0000 0000 0000 0000 0000 0000 0000
00000700: 0000 0000 0000 0000 0000 0000 0000 0000
00000710: 0000 0000 0000 0000 0000 0000 0000 0000
00000720: 0000 0000 0000 0000 0000 0000 0000 0000
00000730: 0000 0000 0000 0000 0000 0000 0000 0000
00000740: 0000 0000 0000 0000 0000 0000 0000 0000
00000750: 0000 0000 0000 0000 0000 0000 0000 0000
00000760: 0000 0000 0000 0000 0000 0000 0000 0000
00000770: 0000 0000 0000 0000 0000 0000 0000 0000
00000780: 0000 0000 0000 0000 0000 0000 0000 0000
00000790: 0000 0000 0000 0000 0000 0000 0000 0000
000007a0: 0000 0000 0000 0000 0000 0000 0000 0000
000007b0: 0000 0000 0000 0000 0000 0000 0000 0000
000007c0: 0000 0000 0000 0000 0000 0000 0000 0000
000007d0: 0000 0000 0000 0000 0000 0000 0000 0000
000007e0: 0000 0000 0000 0000 0000 0000 0000 0000
000007f0: 0000 0000 0000 0000 0000 0000 0000 0000
0.0 0.0 0.0 0.0 0.0 0.0 0.0 0.0
0.0 0.0 0.0 0.0 0.0 0.0 0.0 0.0
0.0 0.0 0.0 0.0 0.0 0.0 0.0 0.0
0.0 0.0 0.0 0.0 0.0 0.0 0.0 0.0
0.0 0.0 0.0 0.0 0.0 0.0 0.0 0.0
0.0 0.0 0.0 0.0 0.0 0.0 0.0 0.0
0.0 0.0 0.0 0.0 0.0 0.0 0.0 0.0
0.0 0.0 0.0 0.0 0.0 0.0 0.0 0.0
0.0 0.0 0.0 0.0 0.0 0.0 0.0 0.0
0.0 0.0 0.0 0.0 0.0 0.0 0.0 0.0
0.0 0.0 0.0 0.0 0.0 0.0 0.0 0.0
0.0 0.0 0.0 0.0 0.0 0.0 0.0 0.0
0.0 0.0 0.0 0.0 0.0 0.0 0.0 0.0
0.0 0.0 0.0 0.0 0.0 0.0 0.0 0.0
0.0 0.0 0.0 0.0 0.0 0.0 0.0 0.0
0.0 0.0 0.0 0.0 0.0 0.0 0.0 0.0
0.0 0.0 0.0 0.0 0.0 0.0 0.0 0.0
0.0 0.0 0.0 0.0 0.0 0.0 0.0 0.0
0.0 0.0 0.0 0.0 0.0 0.0 0.0 0.0
0.0 0.0 0.0 0.0 0.0 0.0 0.0 0.0
0.0 0.0 0.0 0.0 0.0 0.0 0.0 0.0
0.0 0.0 0.0 0.0 0.0 0.0 0.0 0.0
0.0 0.0 0.0 0.0 0.0 0.0 0.0 0.0
0.0 0.0 0.0 0.0 0.0 0.0 0.0 0.0
0.0 0.0 0.0 0.0 0.0 0.0 0.0 0.0
0.0 0.0 0.0 0.0 0.0 0.0 0.0 0.0
0.0 0.0 0.0 0.0 0.0 0.0 0.0 0.0
0.0 0.0 0.0 0.0 0.0 0.0 0.0 0.0
0.0 0.0 0.0 0.0 0.0 0.0 0.0 0.0
0.0 0.0 0.0 0.0 0.0 0.0 0.0 0.0
0.0 0.0 0.0 0.0 0.0 0.0 0.0 0.0
0.0 0.0 0.0 0.0 0.0 0.0 0.0 0.0
